{"format": "layers-model", "generatedBy": "keras v2.2.2", "convertedBy": "TensorFlow.js Converter v1.2.6", "modelTopology": {"keras_version": "2.2.2", "backend": "tensorflow", "model_config": {"class_name": "Model", "config": {"name": "retinanet-bbox", "layers": [{"name": "input_1", "class_name": "InputLayer", "config": {"batch_input_shape": [null, null, null, 3], "dtype": "float32", "sparse": false, "name": "input_1"}, "inbound_nodes": []}, {"name": "padding_conv1", "class_name": "ZeroPadding2D", "config": {"name": "padding_conv1", "trainable": true, "padding": [[3, 3], [3, 3]], "data_format": "channels_last"}, "inbound_nodes": [[["input_1", 0, 0, {}]]]}, {"name": "conv1", "class_name": "Conv2D", "config": {"name": "conv1", "trainable": true, "filters": 64, "kernel_size": [7, 7], "strides": [2, 2], "padding": "valid", "data_format": "channels_last", "dilation_rate": [1, 1], "activation": "linear", "use_bias": false, "kernel_initializer": {"class_name": "VarianceScaling", "config": {"scale": 1.0, "mode": "fan_avg", "distribution": "uniform", "seed": null}}, "bias_initializer": {"class_name": "Zeros", "config": {}}, "kernel_regularizer": null, "bias_regularizer": null, "activity_regularizer": null, "kernel_constraint": null, "bias_constraint": null}, "inbound_nodes": [[["padding_conv1", 0, 0, {}]]]}, {"name": "bn_conv1", "class_name": "BatchNormalization", "config": {"name": "bn_conv1", "trainable": false, "axis": 3, "momentum": 0.99, "epsilon": 1e-05, "center": true, "scale": true, "beta_initializer": {"class_name": "Zeros", "config": {}}, "gamma_initializer": {"class_name": "Ones", "config": {}}, "moving_mean_initializer": {"class_name": "Zeros", "config": {}}, "moving_variance_initializer": {"class_name": "Ones", "config": {}}, "beta_regularizer": null, "gamma_regularizer": null, "beta_constraint": null, "gamma_constraint": null, "freeze": true}, "inbound_nodes": [[["conv1", 0, 0, {}]]]}, {"name": "conv1_relu", "class_name": "Activation", "config": {"name": "conv1_relu", "trainable": true, "activation": "relu"}, "inbound_nodes": [[["bn_conv1", 0, 0, {}]]]}, {"name": "pool1", "class_name": "MaxPooling2D", "config": {"name": "pool1", "trainable": true, "pool_size": [3, 3], "padding": "same", "strides": [2, 2], "data_format": "channels_last"}, "inbound_nodes": [[["conv1_relu", 0, 0, {}]]]}, {"name": "res2a_branch2a", "class_name": "Conv2D", "config": {"name": "res2a_branch2a", "trainable": true, "filters": 64, "kernel_size": [1, 1], "strides": [1, 1], "padding": "valid", "data_format": "channels_last", "dilation_rate": [1, 1], "activation": "linear", "use_bias": false, "kernel_initializer": {"class_name": "VarianceScaling", "config": {"scale": 2.0, "mode": "fan_in", "distribution": "normal", "seed": null}}, "bias_initializer": {"class_name": "Zeros", "config": {}}, "kernel_regularizer": null, "bias_regularizer": null, "activity_regularizer": null, "kernel_constraint": null, "bias_constraint": null}, "inbound_nodes": [[["pool1", 0, 0, {}]]]}, {"name": "bn2a_branch2a", "class_name": "BatchNormalization", "config": {"name": "bn2a_branch2a", "trainable": false, "axis": 3, "momentum": 0.99, "epsilon": 1e-05, "center": true, "scale": true, "beta_initializer": {"class_name": "Zeros", "config": {}}, "gamma_initializer": {"class_name": "Ones", "config": {}}, "moving_mean_initializer": {"class_name": "Zeros", "config": {}}, "moving_variance_initializer": {"class_name": "Ones", "config": {}}, "beta_regularizer": null, "gamma_regularizer": null, "beta_constraint": null, "gamma_constraint": null, "freeze": true}, "inbound_nodes": [[["res2a_branch2a", 0, 0, {}]]]}, {"name": "res2a_branch2a_relu", "class_name": "Activation", "config": {"name": "res2a_branch2a_relu", "trainable": true, "activation": "relu"}, "inbound_nodes": [[["bn2a_branch2a", 0, 0, {}]]]}, {"name": "padding2a_branch2b", "class_name": "ZeroPadding2D", "config": {"name": "padding2a_branch2b", "trainable": true, "padding": [[1, 1], [1, 1]], "data_format": "channels_last"}, "inbound_nodes": [[["res2a_branch2a_relu", 0, 0, {}]]]}, {"name": "res2a_branch2b", "class_name": "Conv2D", "config": {"name": "res2a_branch2b", "trainable": true, "filters": 64, "kernel_size": [3, 3], "strides": [1, 1], "padding": "valid", "data_format": "channels_last", "dilation_rate": [1, 1], "activation": "linear", "use_bias": false, "kernel_initializer": {"class_name": "VarianceScaling", "config": {"scale": 2.0, "mode": "fan_in", "distribution": "normal", "seed": null}}, "bias_initializer": {"class_name": "Zeros", "config": {}}, "kernel_regularizer": null, "bias_regularizer": null, "activity_regularizer": null, "kernel_constraint": null, "bias_constraint": null}, "inbound_nodes": [[["padding2a_branch2b", 0, 0, {}]]]}, {"name": "bn2a_branch2b", "class_name": "BatchNormalization", "config": {"name": "bn2a_branch2b", "trainable": false, "axis": 3, "momentum": 0.99, "epsilon": 1e-05, "center": true, "scale": true, "beta_initializer": {"class_name": "Zeros", "config": {}}, "gamma_initializer": {"class_name": "Ones", "config": {}}, "moving_mean_initializer": {"class_name": "Zeros", "config": {}}, "moving_variance_initializer": {"class_name": "Ones", "config": {}}, "beta_regularizer": null, "gamma_regularizer": null, "beta_constraint": null, "gamma_constraint": null, "freeze": true}, "inbound_nodes": [[["res2a_branch2b", 0, 0, {}]]]}, {"name": "res2a_branch2b_relu", "class_name": "Activation", "config": {"name": "res2a_branch2b_relu", "trainable": true, "activation": "relu"}, "inbound_nodes": [[["bn2a_branch2b", 0, 0, {}]]]}, {"name": "res2a_branch2c", "class_name": "Conv2D", "config": {"name": "res2a_branch2c", "trainable": true, "filters": 256, "kernel_size": [1, 1], "strides": [1, 1], "padding": "valid", "data_format": "channels_last", "dilation_rate": [1, 1], "activation": "linear", "use_bias": false, "kernel_initializer": {"class_name": "VarianceScaling", "config": {"scale": 2.0, "mode": "fan_in", "distribution": "normal", "seed": null}}, "bias_initializer": {"class_name": "Zeros", "config": {}}, "kernel_regularizer": null, "bias_regularizer": null, "activity_regularizer": null, "kernel_constraint": null, "bias_constraint": null}, "inbound_nodes": [[["res2a_branch2b_relu", 0, 0, {}]]]}, {"name": "res2a_branch1", "class_name": "Conv2D", "config": {"name": "res2a_branch1", "trainable": true, "filters": 256, "kernel_size": [1, 1], "strides": [1, 1], "padding": "valid", "data_format": "channels_last", "dilation_rate": [1, 1], "activation": "linear", "use_bias": false, "kernel_initializer": {"class_name": "VarianceScaling", "config": {"scale": 2.0, "mode": "fan_in", "distribution": "normal", "seed": null}}, "bias_initializer": {"class_name": "Zeros", "config": {}}, "kernel_regularizer": null, "bias_regularizer": null, "activity_regularizer": null, "kernel_constraint": null, "bias_constraint": null}, "inbound_nodes": [[["pool1", 0, 0, {}]]]}, {"name": "bn2a_branch2c", "class_name": "BatchNormalization", "config": {"name": "bn2a_branch2c", "trainable": false, "axis": 3, "momentum": 0.99, "epsilon": 1e-05, "center": true, "scale": true, "beta_initializer": {"class_name": "Zeros", "config": {}}, "gamma_initializer": {"class_name": "Ones", "config": {}}, "moving_mean_initializer": {"class_name": "Zeros", "config": {}}, "moving_variance_initializer": {"class_name": "Ones", "config": {}}, "beta_regularizer": null, "gamma_regularizer": null, "beta_constraint": null, "gamma_constraint": null, "freeze": true}, "inbound_nodes": [[["res2a_branch2c", 0, 0, {}]]]}, {"name": "bn2a_branch1", "class_name": "BatchNormalization", "config": {"name": "bn2a_branch1", "trainable": false, "axis": 3, "momentum": 0.99, "epsilon": 1e-05, "center": true, "scale": true, "beta_initializer": {"class_name": "Zeros", "config": {}}, "gamma_initializer": {"class_name": "Ones", "config": {}}, "moving_mean_initializer": {"class_name": "Zeros", "config": {}}, "moving_variance_initializer": {"class_name": "Ones", "config": {}}, "beta_regularizer": null, "gamma_regularizer": null, "beta_constraint": null, "gamma_constraint": null, "freeze": true}, "inbound_nodes": [[["res2a_branch1", 0, 0, {}]]]}, {"name": "res2a", "class_name": "Add", "config": {"name": "res2a", "trainable": true}, "inbound_nodes": [[["bn2a_branch2c", 0, 0, {}], ["bn2a_branch1", 0, 0, {}]]]}, {"name": "res2a_relu", "class_name": "Activation", "config": {"name": "res2a_relu", "trainable": true, "activation": "relu"}, "inbound_nodes": [[["res2a", 0, 0, {}]]]}, {"name": "res2b_branch2a", "class_name": "Conv2D", "config": {"name": "res2b_branch2a", "trainable": true, "filters": 64, "kernel_size": [1, 1], "strides": [1, 1], "padding": "valid", "data_format": "channels_last", "dilation_rate": [1, 1], "activation": "linear", "use_bias": false, "kernel_initializer": {"class_name": "VarianceScaling", "config": {"scale": 2.0, "mode": "fan_in", "distribution": "normal", "seed": null}}, "bias_initializer": {"class_name": "Zeros", "config": {}}, "kernel_regularizer": null, "bias_regularizer": null, "activity_regularizer": null, "kernel_constraint": null, "bias_constraint": null}, "inbound_nodes": [[["res2a_relu", 0, 0, {}]]]}, {"name": "bn2b_branch2a", "class_name": "BatchNormalization", "config": {"name": "bn2b_branch2a", "trainable": false, "axis": 3, "momentum": 0.99, "epsilon": 1e-05, "center": true, "scale": true, "beta_initializer": {"class_name": "Zeros", "config": {}}, "gamma_initializer": {"class_name": "Ones", "config": {}}, "moving_mean_initializer": {"class_name": "Zeros", "config": {}}, "moving_variance_initializer": {"class_name": "Ones", "config": {}}, "beta_regularizer": null, "gamma_regularizer": null, "beta_constraint": null, "gamma_constraint": null, "freeze": true}, "inbound_nodes": [[["res2b_branch2a", 0, 0, {}]]]}, {"name": "res2b_branch2a_relu", "class_name": "Activation", "config": {"name": "res2b_branch2a_relu", "trainable": true, "activation": "relu"}, "inbound_nodes": [[["bn2b_branch2a", 0, 0, {}]]]}, {"name": "padding2b_branch2b", "class_name": "ZeroPadding2D", "config": {"name": "padding2b_branch2b", "trainable": true, "padding": [[1, 1], [1, 1]], "data_format": "channels_last"}, "inbound_nodes": [[["res2b_branch2a_relu", 0, 0, {}]]]}, {"name": "res2b_branch2b", "class_name": "Conv2D", "config": {"name": "res2b_branch2b", "trainable": true, "filters": 64, "kernel_size": [3, 3], "strides": [1, 1], "padding": "valid", "data_format": "channels_last", "dilation_rate": [1, 1], "activation": "linear", "use_bias": false, "kernel_initializer": {"class_name": "VarianceScaling", "config": {"scale": 2.0, "mode": "fan_in", "distribution": "normal", "seed": null}}, "bias_initializer": {"class_name": "Zeros", "config": {}}, "kernel_regularizer": null, "bias_regularizer": null, "activity_regularizer": null, "kernel_constraint": null, "bias_constraint": null}, "inbound_nodes": [[["padding2b_branch2b", 0, 0, {}]]]}, {"name": "bn2b_branch2b", "class_name": "BatchNormalization", "config": {"name": "bn2b_branch2b", "trainable": false, "axis": 3, "momentum": 0.99, "epsilon": 1e-05, "center": true, "scale": true, "beta_initializer": {"class_name": "Zeros", "config": {}}, "gamma_initializer": {"class_name": "Ones", "config": {}}, "moving_mean_initializer": {"class_name": "Zeros", "config": {}}, "moving_variance_initializer": {"class_name": "Ones", "config": {}}, "beta_regularizer": null, "gamma_regularizer": null, "beta_constraint": null, "gamma_constraint": null, "freeze": true}, "inbound_nodes": [[["res2b_branch2b", 0, 0, {}]]]}, {"name": "res2b_branch2b_relu", "class_name": "Activation", "config": {"name": "res2b_branch2b_relu", "trainable": true, "activation": "relu"}, "inbound_nodes": [[["bn2b_branch2b", 0, 0, {}]]]}, {"name": "res2b_branch2c", "class_name": "Conv2D", "config": {"name": "res2b_branch2c", "trainable": true, "filters": 256, "kernel_size": [1, 1], "strides": [1, 1], "padding": "valid", "data_format": "channels_last", "dilation_rate": [1, 1], "activation": "linear", "use_bias": false, "kernel_initializer": {"class_name": "VarianceScaling", "config": {"scale": 2.0, "mode": "fan_in", "distribution": "normal", "seed": null}}, "bias_initializer": {"class_name": "Zeros", "config": {}}, "kernel_regularizer": null, "bias_regularizer": null, "activity_regularizer": null, "kernel_constraint": null, "bias_constraint": null}, "inbound_nodes": [[["res2b_branch2b_relu", 0, 0, {}]]]}, {"name": "bn2b_branch2c", "class_name": "BatchNormalization", "config": {"name": "bn2b_branch2c", "trainable": false, "axis": 3, "momentum": 0.99, "epsilon": 1e-05, "center": true, "scale": true, "beta_initializer": {"class_name": "Zeros", "config": {}}, "gamma_initializer": {"class_name": "Ones", "config": {}}, "moving_mean_initializer": {"class_name": "Zeros", "config": {}}, "moving_variance_initializer": {"class_name": "Ones", "config": {}}, "beta_regularizer": null, "gamma_regularizer": null, "beta_constraint": null, "gamma_constraint": null, "freeze": true}, "inbound_nodes": [[["res2b_branch2c", 0, 0, {}]]]}, {"name": "res2b", "class_name": "Add", "config": {"name": "res2b", "trainable": true}, "inbound_nodes": [[["bn2b_branch2c", 0, 0, {}], ["res2a_relu", 0, 0, {}]]]}, {"name": "res2b_relu", "class_name": "Activation", "config": {"name": "res2b_relu", "trainable": true, "activation": "relu"}, "inbound_nodes": [[["res2b", 0, 0, {}]]]}, {"name": "res2c_branch2a", "class_name": "Conv2D", "config": {"name": "res2c_branch2a", "trainable": true, "filters": 64, "kernel_size": [1, 1], "strides": [1, 1], "padding": "valid", "data_format": "channels_last", "dilation_rate": [1, 1], "activation": "linear", "use_bias": false, "kernel_initializer": {"class_name": "VarianceScaling", "config": {"scale": 2.0, "mode": "fan_in", "distribution": "normal", "seed": null}}, "bias_initializer": {"class_name": "Zeros", "config": {}}, "kernel_regularizer": null, "bias_regularizer": null, "activity_regularizer": null, "kernel_constraint": null, "bias_constraint": null}, "inbound_nodes": [[["res2b_relu", 0, 0, {}]]]}, {"name": "bn2c_branch2a", "class_name": "BatchNormalization", "config": {"name": "bn2c_branch2a", "trainable": false, "axis": 3, "momentum": 0.99, "epsilon": 1e-05, "center": true, "scale": true, "beta_initializer": {"class_name": "Zeros", "config": {}}, "gamma_initializer": {"class_name": "Ones", "config": {}}, "moving_mean_initializer": {"class_name": "Zeros", "config": {}}, "moving_variance_initializer": {"class_name": "Ones", "config": {}}, "beta_regularizer": null, "gamma_regularizer": null, "beta_constraint": null, "gamma_constraint": null, "freeze": true}, "inbound_nodes": [[["res2c_branch2a", 0, 0, {}]]]}, {"name": "res2c_branch2a_relu", "class_name": "Activation", "config": {"name": "res2c_branch2a_relu", "trainable": true, "activation": "relu"}, "inbound_nodes": [[["bn2c_branch2a", 0, 0, {}]]]}, {"name": "padding2c_branch2b", "class_name": "ZeroPadding2D", "config": {"name": "padding2c_branch2b", "trainable": true, "padding": [[1, 1], [1, 1]], "data_format": "channels_last"}, "inbound_nodes": [[["res2c_branch2a_relu", 0, 0, {}]]]}, {"name": "res2c_branch2b", "class_name": "Conv2D", "config": {"name": "res2c_branch2b", "trainable": true, "filters": 64, "kernel_size": [3, 3], "strides": [1, 1], "padding": "valid", "data_format": "channels_last", "dilation_rate": [1, 1], "activation": "linear", "use_bias": false, "kernel_initializer": {"class_name": "VarianceScaling", "config": {"scale": 2.0, "mode": "fan_in", "distribution": "normal", "seed": null}}, "bias_initializer": {"class_name": "Zeros", "config": {}}, "kernel_regularizer": null, "bias_regularizer": null, "activity_regularizer": null, "kernel_constraint": null, "bias_constraint": null}, "inbound_nodes": [[["padding2c_branch2b", 0, 0, {}]]]}, {"name": "bn2c_branch2b", "class_name": "BatchNormalization", "config": {"name": "bn2c_branch2b", "trainable": false, "axis": 3, "momentum": 0.99, "epsilon": 1e-05, "center": true, "scale": true, "beta_initializer": {"class_name": "Zeros", "config": {}}, "gamma_initializer": {"class_name": "Ones", "config": {}}, "moving_mean_initializer": {"class_name": "Zeros", "config": {}}, "moving_variance_initializer": {"class_name": "Ones", "config": {}}, "beta_regularizer": null, "gamma_regularizer": null, "beta_constraint": null, "gamma_constraint": null, "freeze": true}, "inbound_nodes": [[["res2c_branch2b", 0, 0, {}]]]}, {"name": "res2c_branch2b_relu", "class_name": "Activation", "config": {"name": "res2c_branch2b_relu", "trainable": true, "activation": "relu"}, "inbound_nodes": [[["bn2c_branch2b", 0, 0, {}]]]}, {"name": "res2c_branch2c", "class_name": "Conv2D", "config": {"name": "res2c_branch2c", "trainable": true, "filters": 256, "kernel_size": [1, 1], "strides": [1, 1], "padding": "valid", "data_format": "channels_last", "dilation_rate": [1, 1], "activation": "linear", "use_bias": false, "kernel_initializer": {"class_name": "VarianceScaling", "config": {"scale": 2.0, "mode": "fan_in", "distribution": "normal", "seed": null}}, "bias_initializer": {"class_name": "Zeros", "config": {}}, "kernel_regularizer": null, "bias_regularizer": null, "activity_regularizer": null, "kernel_constraint": null, "bias_constraint": null}, "inbound_nodes": [[["res2c_branch2b_relu", 0, 0, {}]]]}, {"name": "bn2c_branch2c", "class_name": "BatchNormalization", "config": {"name": "bn2c_branch2c", "trainable": false, "axis": 3, "momentum": 0.99, "epsilon": 1e-05, "center": true, "scale": true, "beta_initializer": {"class_name": "Zeros", "config": {}}, "gamma_initializer": {"class_name": "Ones", "config": {}}, "moving_mean_initializer": {"class_name": "Zeros", "config": {}}, "moving_variance_initializer": {"class_name": "Ones", "config": {}}, "beta_regularizer": null, "gamma_regularizer": null, "beta_constraint": null, "gamma_constraint": null, "freeze": true}, "inbound_nodes": [[["res2c_branch2c", 0, 0, {}]]]}, {"name": "res2c", "class_name": "Add", "config": {"name": "res2c", "trainable": true}, "inbound_nodes": [[["bn2c_branch2c", 0, 0, {}], ["res2b_relu", 0, 0, {}]]]}, {"name": "res2c_relu", "class_name": "Activation", "config": {"name": "res2c_relu", "trainable": true, "activation": "relu"}, "inbound_nodes": [[["res2c", 0, 0, {}]]]}, {"name": "res3a_branch2a", "class_name": "Conv2D", "config": {"name": "res3a_branch2a", "trainable": true, "filters": 128, "kernel_size": [1, 1], "strides": [2, 2], "padding": "valid", "data_format": "channels_last", "dilation_rate": [1, 1], "activation": "linear", "use_bias": false, "kernel_initializer": {"class_name": "VarianceScaling", "config": {"scale": 2.0, "mode": "fan_in", "distribution": "normal", "seed": null}}, "bias_initializer": {"class_name": "Zeros", "config": {}}, "kernel_regularizer": null, "bias_regularizer": null, "activity_regularizer": null, "kernel_constraint": null, "bias_constraint": null}, "inbound_nodes": [[["res2c_relu", 0, 0, {}]]]}, {"name": "bn3a_branch2a", "class_name": "BatchNormalization", "config": {"name": "bn3a_branch2a", "trainable": false, "axis": 3, "momentum": 0.99, "epsilon": 1e-05, "center": true, "scale": true, "beta_initializer": {"class_name": "Zeros", "config": {}}, "gamma_initializer": {"class_name": "Ones", "config": {}}, "moving_mean_initializer": {"class_name": "Zeros", "config": {}}, "moving_variance_initializer": {"class_name": "Ones", "config": {}}, "beta_regularizer": null, "gamma_regularizer": null, "beta_constraint": null, "gamma_constraint": null, "freeze": true}, "inbound_nodes": [[["res3a_branch2a", 0, 0, {}]]]}, {"name": "res3a_branch2a_relu", "class_name": "Activation", "config": {"name": "res3a_branch2a_relu", "trainable": true, "activation": "relu"}, "inbound_nodes": [[["bn3a_branch2a", 0, 0, {}]]]}, {"name": "padding3a_branch2b", "class_name": "ZeroPadding2D", "config": {"name": "padding3a_branch2b", "trainable": true, "padding": [[1, 1], [1, 1]], "data_format": "channels_last"}, "inbound_nodes": [[["res3a_branch2a_relu", 0, 0, {}]]]}, {"name": "res3a_branch2b", "class_name": "Conv2D", "config": {"name": "res3a_branch2b", "trainable": true, "filters": 128, "kernel_size": [3, 3], "strides": [1, 1], "padding": "valid", "data_format": "channels_last", "dilation_rate": [1, 1], "activation": "linear", "use_bias": false, "kernel_initializer": {"class_name": "VarianceScaling", "config": {"scale": 2.0, "mode": "fan_in", "distribution": "normal", "seed": null}}, "bias_initializer": {"class_name": "Zeros", "config": {}}, "kernel_regularizer": null, "bias_regularizer": null, "activity_regularizer": null, "kernel_constraint": null, "bias_constraint": null}, "inbound_nodes": [[["padding3a_branch2b", 0, 0, {}]]]}, {"name": "bn3a_branch2b", "class_name": "BatchNormalization", "config": {"name": "bn3a_branch2b", "trainable": false, "axis": 3, "momentum": 0.99, "epsilon": 1e-05, "center": true, "scale": true, "beta_initializer": {"class_name": "Zeros", "config": {}}, "gamma_initializer": {"class_name": "Ones", "config": {}}, "moving_mean_initializer": {"class_name": "Zeros", "config": {}}, "moving_variance_initializer": {"class_name": "Ones", "config": {}}, "beta_regularizer": null, "gamma_regularizer": null, "beta_constraint": null, "gamma_constraint": null, "freeze": true}, "inbound_nodes": [[["res3a_branch2b", 0, 0, {}]]]}, {"name": "res3a_branch2b_relu", "class_name": "Activation", "config": {"name": "res3a_branch2b_relu", "trainable": true, "activation": "relu"}, "inbound_nodes": [[["bn3a_branch2b", 0, 0, {}]]]}, {"name": "res3a_branch2c", "class_name": "Conv2D", "config": {"name": "res3a_branch2c", "trainable": true, "filters": 512, "kernel_size": [1, 1], "strides": [1, 1], "padding": "valid", "data_format": "channels_last", "dilation_rate": [1, 1], "activation": "linear", "use_bias": false, "kernel_initializer": {"class_name": "VarianceScaling", "config": {"scale": 2.0, "mode": "fan_in", "distribution": "normal", "seed": null}}, "bias_initializer": {"class_name": "Zeros", "config": {}}, "kernel_regularizer": null, "bias_regularizer": null, "activity_regularizer": null, "kernel_constraint": null, "bias_constraint": null}, "inbound_nodes": [[["res3a_branch2b_relu", 0, 0, {}]]]}, {"name": "res3a_branch1", "class_name": "Conv2D", "config": {"name": "res3a_branch1", "trainable": true, "filters": 512, "kernel_size": [1, 1], "strides": [2, 2], "padding": "valid", "data_format": "channels_last", "dilation_rate": [1, 1], "activation": "linear", "use_bias": false, "kernel_initializer": {"class_name": "VarianceScaling", "config": {"scale": 2.0, "mode": "fan_in", "distribution": "normal", "seed": null}}, "bias_initializer": {"class_name": "Zeros", "config": {}}, "kernel_regularizer": null, "bias_regularizer": null, "activity_regularizer": null, "kernel_constraint": null, "bias_constraint": null}, "inbound_nodes": [[["res2c_relu", 0, 0, {}]]]}, {"name": "bn3a_branch2c", "class_name": "BatchNormalization", "config": {"name": "bn3a_branch2c", "trainable": false, "axis": 3, "momentum": 0.99, "epsilon": 1e-05, "center": true, "scale": true, "beta_initializer": {"class_name": "Zeros", "config": {}}, "gamma_initializer": {"class_name": "Ones", "config": {}}, "moving_mean_initializer": {"class_name": "Zeros", "config": {}}, "moving_variance_initializer": {"class_name": "Ones", "config": {}}, "beta_regularizer": null, "gamma_regularizer": null, "beta_constraint": null, "gamma_constraint": null, "freeze": true}, "inbound_nodes": [[["res3a_branch2c", 0, 0, {}]]]}, {"name": "bn3a_branch1", "class_name": "BatchNormalization", "config": {"name": "bn3a_branch1", "trainable": false, "axis": 3, "momentum": 0.99, "epsilon": 1e-05, "center": true, "scale": true, "beta_initializer": {"class_name": "Zeros", "config": {}}, "gamma_initializer": {"class_name": "Ones", "config": {}}, "moving_mean_initializer": {"class_name": "Zeros", "config": {}}, "moving_variance_initializer": {"class_name": "Ones", "config": {}}, "beta_regularizer": null, "gamma_regularizer": null, "beta_constraint": null, "gamma_constraint": null, "freeze": true}, "inbound_nodes": [[["res3a_branch1", 0, 0, {}]]]}, {"name": "res3a", "class_name": "Add", "config": {"name": "res3a", "trainable": true}, "inbound_nodes": [[["bn3a_branch2c", 0, 0, {}], ["bn3a_branch1", 0, 0, {}]]]}, {"name": "res3a_relu", "class_name": "Activation", "config": {"name": "res3a_relu", "trainable": true, "activation": "relu"}, "inbound_nodes": [[["res3a", 0, 0, {}]]]}, {"name": "res3b_branch2a", "class_name": "Conv2D", "config": {"name": "res3b_branch2a", "trainable": true, "filters": 128, "kernel_size": [1, 1], "strides": [1, 1], "padding": "valid", "data_format": "channels_last", "dilation_rate": [1, 1], "activation": "linear", "use_bias": false, "kernel_initializer": {"class_name": "VarianceScaling", "config": {"scale": 2.0, "mode": "fan_in", "distribution": "normal", "seed": null}}, "bias_initializer": {"class_name": "Zeros", "config": {}}, "kernel_regularizer": null, "bias_regularizer": null, "activity_regularizer": null, "kernel_constraint": null, "bias_constraint": null}, "inbound_nodes": [[["res3a_relu", 0, 0, {}]]]}, {"name": "bn3b_branch2a", "class_name": "BatchNormalization", "config": {"name": "bn3b_branch2a", "trainable": false, "axis": 3, "momentum": 0.99, "epsilon": 1e-05, "center": true, "scale": true, "beta_initializer": {"class_name": "Zeros", "config": {}}, "gamma_initializer": {"class_name": "Ones", "config": {}}, "moving_mean_initializer": {"class_name": "Zeros", "config": {}}, "moving_variance_initializer": {"class_name": "Ones", "config": {}}, "beta_regularizer": null, "gamma_regularizer": null, "beta_constraint": null, "gamma_constraint": null, "freeze": true}, "inbound_nodes": [[["res3b_branch2a", 0, 0, {}]]]}, {"name": "res3b_branch2a_relu", "class_name": "Activation", "config": {"name": "res3b_branch2a_relu", "trainable": true, "activation": "relu"}, "inbound_nodes": [[["bn3b_branch2a", 0, 0, {}]]]}, {"name": "padding3b_branch2b", "class_name": "ZeroPadding2D", "config": {"name": "padding3b_branch2b", "trainable": true, "padding": [[1, 1], [1, 1]], "data_format": "channels_last"}, "inbound_nodes": [[["res3b_branch2a_relu", 0, 0, {}]]]}, {"name": "res3b_branch2b", "class_name": "Conv2D", "config": {"name": "res3b_branch2b", "trainable": true, "filters": 128, "kernel_size": [3, 3], "strides": [1, 1], "padding": "valid", "data_format": "channels_last", "dilation_rate": [1, 1], "activation": "linear", "use_bias": false, "kernel_initializer": {"class_name": "VarianceScaling", "config": {"scale": 2.0, "mode": "fan_in", "distribution": "normal", "seed": null}}, "bias_initializer": {"class_name": "Zeros", "config": {}}, "kernel_regularizer": null, "bias_regularizer": null, "activity_regularizer": null, "kernel_constraint": null, "bias_constraint": null}, "inbound_nodes": [[["padding3b_branch2b", 0, 0, {}]]]}, {"name": "bn3b_branch2b", "class_name": "BatchNormalization", "config": {"name": "bn3b_branch2b", "trainable": false, "axis": 3, "momentum": 0.99, "epsilon": 1e-05, "center": true, "scale": true, "beta_initializer": {"class_name": "Zeros", "config": {}}, "gamma_initializer": {"class_name": "Ones", "config": {}}, "moving_mean_initializer": {"class_name": "Zeros", "config": {}}, "moving_variance_initializer": {"class_name": "Ones", "config": {}}, "beta_regularizer": null, "gamma_regularizer": null, "beta_constraint": null, "gamma_constraint": null, "freeze": true}, "inbound_nodes": [[["res3b_branch2b", 0, 0, {}]]]}, {"name": "res3b_branch2b_relu", "class_name": "Activation", "config": {"name": "res3b_branch2b_relu", "trainable": true, "activation": "relu"}, "inbound_nodes": [[["bn3b_branch2b", 0, 0, {}]]]}, {"name": "res3b_branch2c", "class_name": "Conv2D", "config": {"name": "res3b_branch2c", "trainable": true, "filters": 512, "kernel_size": [1, 1], "strides": [1, 1], "padding": "valid", "data_format": "channels_last", "dilation_rate": [1, 1], "activation": "linear", "use_bias": false, "kernel_initializer": {"class_name": "VarianceScaling", "config": {"scale": 2.0, "mode": "fan_in", "distribution": "normal", "seed": null}}, "bias_initializer": {"class_name": "Zeros", "config": {}}, "kernel_regularizer": null, "bias_regularizer": null, "activity_regularizer": null, "kernel_constraint": null, "bias_constraint": null}, "inbound_nodes": [[["res3b_branch2b_relu", 0, 0, {}]]]}, {"name": "bn3b_branch2c", "class_name": "BatchNormalization", "config": {"name": "bn3b_branch2c", "trainable": false, "axis": 3, "momentum": 0.99, "epsilon": 1e-05, "center": true, "scale": true, "beta_initializer": {"class_name": "Zeros", "config": {}}, "gamma_initializer": {"class_name": "Ones", "config": {}}, "moving_mean_initializer": {"class_name": "Zeros", "config": {}}, "moving_variance_initializer": {"class_name": "Ones", "config": {}}, "beta_regularizer": null, "gamma_regularizer": null, "beta_constraint": null, "gamma_constraint": null, "freeze": true}, "inbound_nodes": [[["res3b_branch2c", 0, 0, {}]]]}, {"name": "res3b", "class_name": "Add", "config": {"name": "res3b", "trainable": true}, "inbound_nodes": [[["bn3b_branch2c", 0, 0, {}], ["res3a_relu", 0, 0, {}]]]}, {"name": "res3b_relu", "class_name": "Activation", "config": {"name": "res3b_relu", "trainable": true, "activation": "relu"}, "inbound_nodes": [[["res3b", 0, 0, {}]]]}, {"name": "res3c_branch2a", "class_name": "Conv2D", "config": {"name": "res3c_branch2a", "trainable": true, "filters": 128, "kernel_size": [1, 1], "strides": [1, 1], "padding": "valid", "data_format": "channels_last", "dilation_rate": [1, 1], "activation": "linear", "use_bias": false, "kernel_initializer": {"class_name": "VarianceScaling", "config": {"scale": 2.0, "mode": "fan_in", "distribution": "normal", "seed": null}}, "bias_initializer": {"class_name": "Zeros", "config": {}}, "kernel_regularizer": null, "bias_regularizer": null, "activity_regularizer": null, "kernel_constraint": null, "bias_constraint": null}, "inbound_nodes": [[["res3b_relu", 0, 0, {}]]]}, {"name": "bn3c_branch2a", "class_name": "BatchNormalization", "config": {"name": "bn3c_branch2a", "trainable": false, "axis": 3, "momentum": 0.99, "epsilon": 1e-05, "center": true, "scale": true, "beta_initializer": {"class_name": "Zeros", "config": {}}, "gamma_initializer": {"class_name": "Ones", "config": {}}, "moving_mean_initializer": {"class_name": "Zeros", "config": {}}, "moving_variance_initializer": {"class_name": "Ones", "config": {}}, "beta_regularizer": null, "gamma_regularizer": null, "beta_constraint": null, "gamma_constraint": null, "freeze": true}, "inbound_nodes": [[["res3c_branch2a", 0, 0, {}]]]}, {"name": "res3c_branch2a_relu", "class_name": "Activation", "config": {"name": "res3c_branch2a_relu", "trainable": true, "activation": "relu"}, "inbound_nodes": [[["bn3c_branch2a", 0, 0, {}]]]}, {"name": "padding3c_branch2b", "class_name": "ZeroPadding2D", "config": {"name": "padding3c_branch2b", "trainable": true, "padding": [[1, 1], [1, 1]], "data_format": "channels_last"}, "inbound_nodes": [[["res3c_branch2a_relu", 0, 0, {}]]]}, {"name": "res3c_branch2b", "class_name": "Conv2D", "config": {"name": "res3c_branch2b", "trainable": true, "filters": 128, "kernel_size": [3, 3], "strides": [1, 1], "padding": "valid", "data_format": "channels_last", "dilation_rate": [1, 1], "activation": "linear", "use_bias": false, "kernel_initializer": {"class_name": "VarianceScaling", "config": {"scale": 2.0, "mode": "fan_in", "distribution": "normal", "seed": null}}, "bias_initializer": {"class_name": "Zeros", "config": {}}, "kernel_regularizer": null, "bias_regularizer": null, "activity_regularizer": null, "kernel_constraint": null, "bias_constraint": null}, "inbound_nodes": [[["padding3c_branch2b", 0, 0, {}]]]}, {"name": "bn3c_branch2b", "class_name": "BatchNormalization", "config": {"name": "bn3c_branch2b", "trainable": false, "axis": 3, "momentum": 0.99, "epsilon": 1e-05, "center": true, "scale": true, "beta_initializer": {"class_name": "Zeros", "config": {}}, "gamma_initializer": {"class_name": "Ones", "config": {}}, "moving_mean_initializer": {"class_name": "Zeros", "config": {}}, "moving_variance_initializer": {"class_name": "Ones", "config": {}}, "beta_regularizer": null, "gamma_regularizer": null, "beta_constraint": null, "gamma_constraint": null, "freeze": true}, "inbound_nodes": [[["res3c_branch2b", 0, 0, {}]]]}, {"name": "res3c_branch2b_relu", "class_name": "Activation", "config": {"name": "res3c_branch2b_relu", "trainable": true, "activation": "relu"}, "inbound_nodes": [[["bn3c_branch2b", 0, 0, {}]]]}, {"name": "res3c_branch2c", "class_name": "Conv2D", "config": {"name": "res3c_branch2c", "trainable": true, "filters": 512, "kernel_size": [1, 1], "strides": [1, 1], "padding": "valid", "data_format": "channels_last", "dilation_rate": [1, 1], "activation": "linear", "use_bias": false, "kernel_initializer": {"class_name": "VarianceScaling", "config": {"scale": 2.0, "mode": "fan_in", "distribution": "normal", "seed": null}}, "bias_initializer": {"class_name": "Zeros", "config": {}}, "kernel_regularizer": null, "bias_regularizer": null, "activity_regularizer": null, "kernel_constraint": null, "bias_constraint": null}, "inbound_nodes": [[["res3c_branch2b_relu", 0, 0, {}]]]}, {"name": "bn3c_branch2c", "class_name": "BatchNormalization", "config": {"name": "bn3c_branch2c", "trainable": false, "axis": 3, "momentum": 0.99, "epsilon": 1e-05, "center": true, "scale": true, "beta_initializer": {"class_name": "Zeros", "config": {}}, "gamma_initializer": {"class_name": "Ones", "config": {}}, "moving_mean_initializer": {"class_name": "Zeros", "config": {}}, "moving_variance_initializer": {"class_name": "Ones", "config": {}}, "beta_regularizer": null, "gamma_regularizer": null, "beta_constraint": null, "gamma_constraint": null, "freeze": true}, "inbound_nodes": [[["res3c_branch2c", 0, 0, {}]]]}, {"name": "res3c", "class_name": "Add", "config": {"name": "res3c", "trainable": true}, "inbound_nodes": [[["bn3c_branch2c", 0, 0, {}], ["res3b_relu", 0, 0, {}]]]}, {"name": "res3c_relu", "class_name": "Activation", "config": {"name": "res3c_relu", "trainable": true, "activation": "relu"}, "inbound_nodes": [[["res3c", 0, 0, {}]]]}, {"name": "res3d_branch2a", "class_name": "Conv2D", "config": {"name": "res3d_branch2a", "trainable": true, "filters": 128, "kernel_size": [1, 1], "strides": [1, 1], "padding": "valid", "data_format": "channels_last", "dilation_rate": [1, 1], "activation": "linear", "use_bias": false, "kernel_initializer": {"class_name": "VarianceScaling", "config": {"scale": 2.0, "mode": "fan_in", "distribution": "normal", "seed": null}}, "bias_initializer": {"class_name": "Zeros", "config": {}}, "kernel_regularizer": null, "bias_regularizer": null, "activity_regularizer": null, "kernel_constraint": null, "bias_constraint": null}, "inbound_nodes": [[["res3c_relu", 0, 0, {}]]]}, {"name": "bn3d_branch2a", "class_name": "BatchNormalization", "config": {"name": "bn3d_branch2a", "trainable": false, "axis": 3, "momentum": 0.99, "epsilon": 1e-05, "center": true, "scale": true, "beta_initializer": {"class_name": "Zeros", "config": {}}, "gamma_initializer": {"class_name": "Ones", "config": {}}, "moving_mean_initializer": {"class_name": "Zeros", "config": {}}, "moving_variance_initializer": {"class_name": "Ones", "config": {}}, "beta_regularizer": null, "gamma_regularizer": null, "beta_constraint": null, "gamma_constraint": null, "freeze": true}, "inbound_nodes": [[["res3d_branch2a", 0, 0, {}]]]}, {"name": "res3d_branch2a_relu", "class_name": "Activation", "config": {"name": "res3d_branch2a_relu", "trainable": true, "activation": "relu"}, "inbound_nodes": [[["bn3d_branch2a", 0, 0, {}]]]}, {"name": "padding3d_branch2b", "class_name": "ZeroPadding2D", "config": {"name": "padding3d_branch2b", "trainable": true, "padding": [[1, 1], [1, 1]], "data_format": "channels_last"}, "inbound_nodes": [[["res3d_branch2a_relu", 0, 0, {}]]]}, {"name": "res3d_branch2b", "class_name": "Conv2D", "config": {"name": "res3d_branch2b", "trainable": true, "filters": 128, "kernel_size": [3, 3], "strides": [1, 1], "padding": "valid", "data_format": "channels_last", "dilation_rate": [1, 1], "activation": "linear", "use_bias": false, "kernel_initializer": {"class_name": "VarianceScaling", "config": {"scale": 2.0, "mode": "fan_in", "distribution": "normal", "seed": null}}, "bias_initializer": {"class_name": "Zeros", "config": {}}, "kernel_regularizer": null, "bias_regularizer": null, "activity_regularizer": null, "kernel_constraint": null, "bias_constraint": null}, "inbound_nodes": [[["padding3d_branch2b", 0, 0, {}]]]}, {"name": "bn3d_branch2b", "class_name": "BatchNormalization", "config": {"name": "bn3d_branch2b", "trainable": false, "axis": 3, "momentum": 0.99, "epsilon": 1e-05, "center": true, "scale": true, "beta_initializer": {"class_name": "Zeros", "config": {}}, "gamma_initializer": {"class_name": "Ones", "config": {}}, "moving_mean_initializer": {"class_name": "Zeros", "config": {}}, "moving_variance_initializer": {"class_name": "Ones", "config": {}}, "beta_regularizer": null, "gamma_regularizer": null, "beta_constraint": null, "gamma_constraint": null, "freeze": true}, "inbound_nodes": [[["res3d_branch2b", 0, 0, {}]]]}, {"name": "res3d_branch2b_relu", "class_name": "Activation", "config": {"name": "res3d_branch2b_relu", "trainable": true, "activation": "relu"}, "inbound_nodes": [[["bn3d_branch2b", 0, 0, {}]]]}, {"name": "res3d_branch2c", "class_name": "Conv2D", "config": {"name": "res3d_branch2c", "trainable": true, "filters": 512, "kernel_size": [1, 1], "strides": [1, 1], "padding": "valid", "data_format": "channels_last", "dilation_rate": [1, 1], "activation": "linear", "use_bias": false, "kernel_initializer": {"class_name": "VarianceScaling", "config": {"scale": 2.0, "mode": "fan_in", "distribution": "normal", "seed": null}}, "bias_initializer": {"class_name": "Zeros", "config": {}}, "kernel_regularizer": null, "bias_regularizer": null, "activity_regularizer": null, "kernel_constraint": null, "bias_constraint": null}, "inbound_nodes": [[["res3d_branch2b_relu", 0, 0, {}]]]}, {"name": "bn3d_branch2c", "class_name": "BatchNormalization", "config": {"name": "bn3d_branch2c", "trainable": false, "axis": 3, "momentum": 0.99, "epsilon": 1e-05, "center": true, "scale": true, "beta_initializer": {"class_name": "Zeros", "config": {}}, "gamma_initializer": {"class_name": "Ones", "config": {}}, "moving_mean_initializer": {"class_name": "Zeros", "config": {}}, "moving_variance_initializer": {"class_name": "Ones", "config": {}}, "beta_regularizer": null, "gamma_regularizer": null, "beta_constraint": null, "gamma_constraint": null, "freeze": true}, "inbound_nodes": [[["res3d_branch2c", 0, 0, {}]]]}, {"name": "res3d", "class_name": "Add", "config": {"name": "res3d", "trainable": true}, "inbound_nodes": [[["bn3d_branch2c", 0, 0, {}], ["res3c_relu", 0, 0, {}]]]}, {"name": "res3d_relu", "class_name": "Activation", "config": {"name": "res3d_relu", "trainable": true, "activation": "relu"}, "inbound_nodes": [[["res3d", 0, 0, {}]]]}, {"name": "res4a_branch2a", "class_name": "Conv2D", "config": {"name": "res4a_branch2a", "trainable": true, "filters": 256, "kernel_size": [1, 1], "strides": [2, 2], "padding": "valid", "data_format": "channels_last", "dilation_rate": [1, 1], "activation": "linear", "use_bias": false, "kernel_initializer": {"class_name": "VarianceScaling", "config": {"scale": 2.0, "mode": "fan_in", "distribution": "normal", "seed": null}}, "bias_initializer": {"class_name": "Zeros", "config": {}}, "kernel_regularizer": null, "bias_regularizer": null, "activity_regularizer": null, "kernel_constraint": null, "bias_constraint": null}, "inbound_nodes": [[["res3d_relu", 0, 0, {}]]]}, {"name": "bn4a_branch2a", "class_name": "BatchNormalization", "config": {"name": "bn4a_branch2a", "trainable": false, "axis": 3, "momentum": 0.99, "epsilon": 1e-05, "center": true, "scale": true, "beta_initializer": {"class_name": "Zeros", "config": {}}, "gamma_initializer": {"class_name": "Ones", "config": {}}, "moving_mean_initializer": {"class_name": "Zeros", "config": {}}, "moving_variance_initializer": {"class_name": "Ones", "config": {}}, "beta_regularizer": null, "gamma_regularizer": null, "beta_constraint": null, "gamma_constraint": null, "freeze": true}, "inbound_nodes": [[["res4a_branch2a", 0, 0, {}]]]}, {"name": "res4a_branch2a_relu", "class_name": "Activation", "config": {"name": "res4a_branch2a_relu", "trainable": true, "activation": "relu"}, "inbound_nodes": [[["bn4a_branch2a", 0, 0, {}]]]}, {"name": "padding4a_branch2b", "class_name": "ZeroPadding2D", "config": {"name": "padding4a_branch2b", "trainable": true, "padding": [[1, 1], [1, 1]], "data_format": "channels_last"}, "inbound_nodes": [[["res4a_branch2a_relu", 0, 0, {}]]]}, {"name": "res4a_branch2b", "class_name": "Conv2D", "config": {"name": "res4a_branch2b", "trainable": true, "filters": 256, "kernel_size": [3, 3], "strides": [1, 1], "padding": "valid", "data_format": "channels_last", "dilation_rate": [1, 1], "activation": "linear", "use_bias": false, "kernel_initializer": {"class_name": "VarianceScaling", "config": {"scale": 2.0, "mode": "fan_in", "distribution": "normal", "seed": null}}, "bias_initializer": {"class_name": "Zeros", "config": {}}, "kernel_regularizer": null, "bias_regularizer": null, "activity_regularizer": null, "kernel_constraint": null, "bias_constraint": null}, "inbound_nodes": [[["padding4a_branch2b", 0, 0, {}]]]}, {"name": "bn4a_branch2b", "class_name": "BatchNormalization", "config": {"name": "bn4a_branch2b", "trainable": false, "axis": 3, "momentum": 0.99, "epsilon": 1e-05, "center": true, "scale": true, "beta_initializer": {"class_name": "Zeros", "config": {}}, "gamma_initializer": {"class_name": "Ones", "config": {}}, "moving_mean_initializer": {"class_name": "Zeros", "config": {}}, "moving_variance_initializer": {"class_name": "Ones", "config": {}}, "beta_regularizer": null, "gamma_regularizer": null, "beta_constraint": null, "gamma_constraint": null, "freeze": true}, "inbound_nodes": [[["res4a_branch2b", 0, 0, {}]]]}, {"name": "res4a_branch2b_relu", "class_name": "Activation", "config": {"name": "res4a_branch2b_relu", "trainable": true, "activation": "relu"}, "inbound_nodes": [[["bn4a_branch2b", 0, 0, {}]]]}, {"name": "res4a_branch2c", "class_name": "Conv2D", "config": {"name": "res4a_branch2c", "trainable": true, "filters": 1024, "kernel_size": [1, 1], "strides": [1, 1], "padding": "valid", "data_format": "channels_last", "dilation_rate": [1, 1], "activation": "linear", "use_bias": false, "kernel_initializer": {"class_name": "VarianceScaling", "config": {"scale": 2.0, "mode": "fan_in", "distribution": "normal", "seed": null}}, "bias_initializer": {"class_name": "Zeros", "config": {}}, "kernel_regularizer": null, "bias_regularizer": null, "activity_regularizer": null, "kernel_constraint": null, "bias_constraint": null}, "inbound_nodes": [[["res4a_branch2b_relu", 0, 0, {}]]]}, {"name": "res4a_branch1", "class_name": "Conv2D", "config": {"name": "res4a_branch1", "trainable": true, "filters": 1024, "kernel_size": [1, 1], "strides": [2, 2], "padding": "valid", "data_format": "channels_last", "dilation_rate": [1, 1], "activation": "linear", "use_bias": false, "kernel_initializer": {"class_name": "VarianceScaling", "config": {"scale": 2.0, "mode": "fan_in", "distribution": "normal", "seed": null}}, "bias_initializer": {"class_name": "Zeros", "config": {}}, "kernel_regularizer": null, "bias_regularizer": null, "activity_regularizer": null, "kernel_constraint": null, "bias_constraint": null}, "inbound_nodes": [[["res3d_relu", 0, 0, {}]]]}, {"name": "bn4a_branch2c", "class_name": "BatchNormalization", "config": {"name": "bn4a_branch2c", "trainable": false, "axis": 3, "momentum": 0.99, "epsilon": 1e-05, "center": true, "scale": true, "beta_initializer": {"class_name": "Zeros", "config": {}}, "gamma_initializer": {"class_name": "Ones", "config": {}}, "moving_mean_initializer": {"class_name": "Zeros", "config": {}}, "moving_variance_initializer": {"class_name": "Ones", "config": {}}, "beta_regularizer": null, "gamma_regularizer": null, "beta_constraint": null, "gamma_constraint": null, "freeze": true}, "inbound_nodes": [[["res4a_branch2c", 0, 0, {}]]]}, {"name": "bn4a_branch1", "class_name": "BatchNormalization", "config": {"name": "bn4a_branch1", "trainable": false, "axis": 3, "momentum": 0.99, "epsilon": 1e-05, "center": true, "scale": true, "beta_initializer": {"class_name": "Zeros", "config": {}}, "gamma_initializer": {"class_name": "Ones", "config": {}}, "moving_mean_initializer": {"class_name": "Zeros", "config": {}}, "moving_variance_initializer": {"class_name": "Ones", "config": {}}, "beta_regularizer": null, "gamma_regularizer": null, "beta_constraint": null, "gamma_constraint": null, "freeze": true}, "inbound_nodes": [[["res4a_branch1", 0, 0, {}]]]}, {"name": "res4a", "class_name": "Add", "config": {"name": "res4a", "trainable": true}, "inbound_nodes": [[["bn4a_branch2c", 0, 0, {}], ["bn4a_branch1", 0, 0, {}]]]}, {"name": "res4a_relu", "class_name": "Activation", "config": {"name": "res4a_relu", "trainable": true, "activation": "relu"}, "inbound_nodes": [[["res4a", 0, 0, {}]]]}, {"name": "res4b_branch2a", "class_name": "Conv2D", "config": {"name": "res4b_branch2a", "trainable": true, "filters": 256, "kernel_size": [1, 1], "strides": [1, 1], "padding": "valid", "data_format": "channels_last", "dilation_rate": [1, 1], "activation": "linear", "use_bias": false, "kernel_initializer": {"class_name": "VarianceScaling", "config": {"scale": 2.0, "mode": "fan_in", "distribution": "normal", "seed": null}}, "bias_initializer": {"class_name": "Zeros", "config": {}}, "kernel_regularizer": null, "bias_regularizer": null, "activity_regularizer": null, "kernel_constraint": null, "bias_constraint": null}, "inbound_nodes": [[["res4a_relu", 0, 0, {}]]]}, {"name": "bn4b_branch2a", "class_name": "BatchNormalization", "config": {"name": "bn4b_branch2a", "trainable": false, "axis": 3, "momentum": 0.99, "epsilon": 1e-05, "center": true, "scale": true, "beta_initializer": {"class_name": "Zeros", "config": {}}, "gamma_initializer": {"class_name": "Ones", "config": {}}, "moving_mean_initializer": {"class_name": "Zeros", "config": {}}, "moving_variance_initializer": {"class_name": "Ones", "config": {}}, "beta_regularizer": null, "gamma_regularizer": null, "beta_constraint": null, "gamma_constraint": null, "freeze": true}, "inbound_nodes": [[["res4b_branch2a", 0, 0, {}]]]}, {"name": "res4b_branch2a_relu", "class_name": "Activation", "config": {"name": "res4b_branch2a_relu", "trainable": true, "activation": "relu"}, "inbound_nodes": [[["bn4b_branch2a", 0, 0, {}]]]}, {"name": "padding4b_branch2b", "class_name": "ZeroPadding2D", "config": {"name": "padding4b_branch2b", "trainable": true, "padding": [[1, 1], [1, 1]], "data_format": "channels_last"}, "inbound_nodes": [[["res4b_branch2a_relu", 0, 0, {}]]]}, {"name": "res4b_branch2b", "class_name": "Conv2D", "config": {"name": "res4b_branch2b", "trainable": true, "filters": 256, "kernel_size": [3, 3], "strides": [1, 1], "padding": "valid", "data_format": "channels_last", "dilation_rate": [1, 1], "activation": "linear", "use_bias": false, "kernel_initializer": {"class_name": "VarianceScaling", "config": {"scale": 2.0, "mode": "fan_in", "distribution": "normal", "seed": null}}, "bias_initializer": {"class_name": "Zeros", "config": {}}, "kernel_regularizer": null, "bias_regularizer": null, "activity_regularizer": null, "kernel_constraint": null, "bias_constraint": null}, "inbound_nodes": [[["padding4b_branch2b", 0, 0, {}]]]}, {"name": "bn4b_branch2b", "class_name": "BatchNormalization", "config": {"name": "bn4b_branch2b", "trainable": false, "axis": 3, "momentum": 0.99, "epsilon": 1e-05, "center": true, "scale": true, "beta_initializer": {"class_name": "Zeros", "config": {}}, "gamma_initializer": {"class_name": "Ones", "config": {}}, "moving_mean_initializer": {"class_name": "Zeros", "config": {}}, "moving_variance_initializer": {"class_name": "Ones", "config": {}}, "beta_regularizer": null, "gamma_regularizer": null, "beta_constraint": null, "gamma_constraint": null, "freeze": true}, "inbound_nodes": [[["res4b_branch2b", 0, 0, {}]]]}, {"name": "res4b_branch2b_relu", "class_name": "Activation", "config": {"name": "res4b_branch2b_relu", "trainable": true, "activation": "relu"}, "inbound_nodes": [[["bn4b_branch2b", 0, 0, {}]]]}, {"name": "res4b_branch2c", "class_name": "Conv2D", "config": {"name": "res4b_branch2c", "trainable": true, "filters": 1024, "kernel_size": [1, 1], "strides": [1, 1], "padding": "valid", "data_format": "channels_last", "dilation_rate": [1, 1], "activation": "linear", "use_bias": false, "kernel_initializer": {"class_name": "VarianceScaling", "config": {"scale": 2.0, "mode": "fan_in", "distribution": "normal", "seed": null}}, "bias_initializer": {"class_name": "Zeros", "config": {}}, "kernel_regularizer": null, "bias_regularizer": null, "activity_regularizer": null, "kernel_constraint": null, "bias_constraint": null}, "inbound_nodes": [[["res4b_branch2b_relu", 0, 0, {}]]]}, {"name": "bn4b_branch2c", "class_name": "BatchNormalization", "config": {"name": "bn4b_branch2c", "trainable": false, "axis": 3, "momentum": 0.99, "epsilon": 1e-05, "center": true, "scale": true, "beta_initializer": {"class_name": "Zeros", "config": {}}, "gamma_initializer": {"class_name": "Ones", "config": {}}, "moving_mean_initializer": {"class_name": "Zeros", "config": {}}, "moving_variance_initializer": {"class_name": "Ones", "config": {}}, "beta_regularizer": null, "gamma_regularizer": null, "beta_constraint": null, "gamma_constraint": null, "freeze": true}, "inbound_nodes": [[["res4b_branch2c", 0, 0, {}]]]}, {"name": "res4b", "class_name": "Add", "config": {"name": "res4b", "trainable": true}, "inbound_nodes": [[["bn4b_branch2c", 0, 0, {}], ["res4a_relu", 0, 0, {}]]]}, {"name": "res4b_relu", "class_name": "Activation", "config": {"name": "res4b_relu", "trainable": true, "activation": "relu"}, "inbound_nodes": [[["res4b", 0, 0, {}]]]}, {"name": "res4c_branch2a", "class_name": "Conv2D", "config": {"name": "res4c_branch2a", "trainable": true, "filters": 256, "kernel_size": [1, 1], "strides": [1, 1], "padding": "valid", "data_format": "channels_last", "dilation_rate": [1, 1], "activation": "linear", "use_bias": false, "kernel_initializer": {"class_name": "VarianceScaling", "config": {"scale": 2.0, "mode": "fan_in", "distribution": "normal", "seed": null}}, "bias_initializer": {"class_name": "Zeros", "config": {}}, "kernel_regularizer": null, "bias_regularizer": null, "activity_regularizer": null, "kernel_constraint": null, "bias_constraint": null}, "inbound_nodes": [[["res4b_relu", 0, 0, {}]]]}, {"name": "bn4c_branch2a", "class_name": "BatchNormalization", "config": {"name": "bn4c_branch2a", "trainable": false, "axis": 3, "momentum": 0.99, "epsilon": 1e-05, "center": true, "scale": true, "beta_initializer": {"class_name": "Zeros", "config": {}}, "gamma_initializer": {"class_name": "Ones", "config": {}}, "moving_mean_initializer": {"class_name": "Zeros", "config": {}}, "moving_variance_initializer": {"class_name": "Ones", "config": {}}, "beta_regularizer": null, "gamma_regularizer": null, "beta_constraint": null, "gamma_constraint": null, "freeze": true}, "inbound_nodes": [[["res4c_branch2a", 0, 0, {}]]]}, {"name": "res4c_branch2a_relu", "class_name": "Activation", "config": {"name": "res4c_branch2a_relu", "trainable": true, "activation": "relu"}, "inbound_nodes": [[["bn4c_branch2a", 0, 0, {}]]]}, {"name": "padding4c_branch2b", "class_name": "ZeroPadding2D", "config": {"name": "padding4c_branch2b", "trainable": true, "padding": [[1, 1], [1, 1]], "data_format": "channels_last"}, "inbound_nodes": [[["res4c_branch2a_relu", 0, 0, {}]]]}, {"name": "res4c_branch2b", "class_name": "Conv2D", "config": {"name": "res4c_branch2b", "trainable": true, "filters": 256, "kernel_size": [3, 3], "strides": [1, 1], "padding": "valid", "data_format": "channels_last", "dilation_rate": [1, 1], "activation": "linear", "use_bias": false, "kernel_initializer": {"class_name": "VarianceScaling", "config": {"scale": 2.0, "mode": "fan_in", "distribution": "normal", "seed": null}}, "bias_initializer": {"class_name": "Zeros", "config": {}}, "kernel_regularizer": null, "bias_regularizer": null, "activity_regularizer": null, "kernel_constraint": null, "bias_constraint": null}, "inbound_nodes": [[["padding4c_branch2b", 0, 0, {}]]]}, {"name": "bn4c_branch2b", "class_name": "BatchNormalization", "config": {"name": "bn4c_branch2b", "trainable": false, "axis": 3, "momentum": 0.99, "epsilon": 1e-05, "center": true, "scale": true, "beta_initializer": {"class_name": "Zeros", "config": {}}, "gamma_initializer": {"class_name": "Ones", "config": {}}, "moving_mean_initializer": {"class_name": "Zeros", "config": {}}, "moving_variance_initializer": {"class_name": "Ones", "config": {}}, "beta_regularizer": null, "gamma_regularizer": null, "beta_constraint": null, "gamma_constraint": null, "freeze": true}, "inbound_nodes": [[["res4c_branch2b", 0, 0, {}]]]}, {"name": "res4c_branch2b_relu", "class_name": "Activation", "config": {"name": "res4c_branch2b_relu", "trainable": true, "activation": "relu"}, "inbound_nodes": [[["bn4c_branch2b", 0, 0, {}]]]}, {"name": "res4c_branch2c", "class_name": "Conv2D", "config": {"name": "res4c_branch2c", "trainable": true, "filters": 1024, "kernel_size": [1, 1], "strides": [1, 1], "padding": "valid", "data_format": "channels_last", "dilation_rate": [1, 1], "activation": "linear", "use_bias": false, "kernel_initializer": {"class_name": "VarianceScaling", "config": {"scale": 2.0, "mode": "fan_in", "distribution": "normal", "seed": null}}, "bias_initializer": {"class_name": "Zeros", "config": {}}, "kernel_regularizer": null, "bias_regularizer": null, "activity_regularizer": null, "kernel_constraint": null, "bias_constraint": null}, "inbound_nodes": [[["res4c_branch2b_relu", 0, 0, {}]]]}, {"name": "bn4c_branch2c", "class_name": "BatchNormalization", "config": {"name": "bn4c_branch2c", "trainable": false, "axis": 3, "momentum": 0.99, "epsilon": 1e-05, "center": true, "scale": true, "beta_initializer": {"class_name": "Zeros", "config": {}}, "gamma_initializer": {"class_name": "Ones", "config": {}}, "moving_mean_initializer": {"class_name": "Zeros", "config": {}}, "moving_variance_initializer": {"class_name": "Ones", "config": {}}, "beta_regularizer": null, "gamma_regularizer": null, "beta_constraint": null, "gamma_constraint": null, "freeze": true}, "inbound_nodes": [[["res4c_branch2c", 0, 0, {}]]]}, {"name": "res4c", "class_name": "Add", "config": {"name": "res4c", "trainable": true}, "inbound_nodes": [[["bn4c_branch2c", 0, 0, {}], ["res4b_relu", 0, 0, {}]]]}, {"name": "res4c_relu", "class_name": "Activation", "config": {"name": "res4c_relu", "trainable": true, "activation": "relu"}, "inbound_nodes": [[["res4c", 0, 0, {}]]]}, {"name": "res4d_branch2a", "class_name": "Conv2D", "config": {"name": "res4d_branch2a", "trainable": true, "filters": 256, "kernel_size": [1, 1], "strides": [1, 1], "padding": "valid", "data_format": "channels_last", "dilation_rate": [1, 1], "activation": "linear", "use_bias": false, "kernel_initializer": {"class_name": "VarianceScaling", "config": {"scale": 2.0, "mode": "fan_in", "distribution": "normal", "seed": null}}, "bias_initializer": {"class_name": "Zeros", "config": {}}, "kernel_regularizer": null, "bias_regularizer": null, "activity_regularizer": null, "kernel_constraint": null, "bias_constraint": null}, "inbound_nodes": [[["res4c_relu", 0, 0, {}]]]}, {"name": "bn4d_branch2a", "class_name": "BatchNormalization", "config": {"name": "bn4d_branch2a", "trainable": false, "axis": 3, "momentum": 0.99, "epsilon": 1e-05, "center": true, "scale": true, "beta_initializer": {"class_name": "Zeros", "config": {}}, "gamma_initializer": {"class_name": "Ones", "config": {}}, "moving_mean_initializer": {"class_name": "Zeros", "config": {}}, "moving_variance_initializer": {"class_name": "Ones", "config": {}}, "beta_regularizer": null, "gamma_regularizer": null, "beta_constraint": null, "gamma_constraint": null, "freeze": true}, "inbound_nodes": [[["res4d_branch2a", 0, 0, {}]]]}, {"name": "res4d_branch2a_relu", "class_name": "Activation", "config": {"name": "res4d_branch2a_relu", "trainable": true, "activation": "relu"}, "inbound_nodes": [[["bn4d_branch2a", 0, 0, {}]]]}, {"name": "padding4d_branch2b", "class_name": "ZeroPadding2D", "config": {"name": "padding4d_branch2b", "trainable": true, "padding": [[1, 1], [1, 1]], "data_format": "channels_last"}, "inbound_nodes": [[["res4d_branch2a_relu", 0, 0, {}]]]}, {"name": "res4d_branch2b", "class_name": "Conv2D", "config": {"name": "res4d_branch2b", "trainable": true, "filters": 256, "kernel_size": [3, 3], "strides": [1, 1], "padding": "valid", "data_format": "channels_last", "dilation_rate": [1, 1], "activation": "linear", "use_bias": false, "kernel_initializer": {"class_name": "VarianceScaling", "config": {"scale": 2.0, "mode": "fan_in", "distribution": "normal", "seed": null}}, "bias_initializer": {"class_name": "Zeros", "config": {}}, "kernel_regularizer": null, "bias_regularizer": null, "activity_regularizer": null, "kernel_constraint": null, "bias_constraint": null}, "inbound_nodes": [[["padding4d_branch2b", 0, 0, {}]]]}, {"name": "bn4d_branch2b", "class_name": "BatchNormalization", "config": {"name": "bn4d_branch2b", "trainable": false, "axis": 3, "momentum": 0.99, "epsilon": 1e-05, "center": true, "scale": true, "beta_initializer": {"class_name": "Zeros", "config": {}}, "gamma_initializer": {"class_name": "Ones", "config": {}}, "moving_mean_initializer": {"class_name": "Zeros", "config": {}}, "moving_variance_initializer": {"class_name": "Ones", "config": {}}, "beta_regularizer": null, "gamma_regularizer": null, "beta_constraint": null, "gamma_constraint": null, "freeze": true}, "inbound_nodes": [[["res4d_branch2b", 0, 0, {}]]]}, {"name": "res4d_branch2b_relu", "class_name": "Activation", "config": {"name": "res4d_branch2b_relu", "trainable": true, "activation": "relu"}, "inbound_nodes": [[["bn4d_branch2b", 0, 0, {}]]]}, {"name": "res4d_branch2c", "class_name": "Conv2D", "config": {"name": "res4d_branch2c", "trainable": true, "filters": 1024, "kernel_size": [1, 1], "strides": [1, 1], "padding": "valid", "data_format": "channels_last", "dilation_rate": [1, 1], "activation": "linear", "use_bias": false, "kernel_initializer": {"class_name": "VarianceScaling", "config": {"scale": 2.0, "mode": "fan_in", "distribution": "normal", "seed": null}}, "bias_initializer": {"class_name": "Zeros", "config": {}}, "kernel_regularizer": null, "bias_regularizer": null, "activity_regularizer": null, "kernel_constraint": null, "bias_constraint": null}, "inbound_nodes": [[["res4d_branch2b_relu", 0, 0, {}]]]}, {"name": "bn4d_branch2c", "class_name": "BatchNormalization", "config": {"name": "bn4d_branch2c", "trainable": false, "axis": 3, "momentum": 0.99, "epsilon": 1e-05, "center": true, "scale": true, "beta_initializer": {"class_name": "Zeros", "config": {}}, "gamma_initializer": {"class_name": "Ones", "config": {}}, "moving_mean_initializer": {"class_name": "Zeros", "config": {}}, "moving_variance_initializer": {"class_name": "Ones", "config": {}}, "beta_regularizer": null, "gamma_regularizer": null, "beta_constraint": null, "gamma_constraint": null, "freeze": true}, "inbound_nodes": [[["res4d_branch2c", 0, 0, {}]]]}, {"name": "res4d", "class_name": "Add", "config": {"name": "res4d", "trainable": true}, "inbound_nodes": [[["bn4d_branch2c", 0, 0, {}], ["res4c_relu", 0, 0, {}]]]}, {"name": "res4d_relu", "class_name": "Activation", "config": {"name": "res4d_relu", "trainable": true, "activation": "relu"}, "inbound_nodes": [[["res4d", 0, 0, {}]]]}, {"name": "res4e_branch2a", "class_name": "Conv2D", "config": {"name": "res4e_branch2a", "trainable": true, "filters": 256, "kernel_size": [1, 1], "strides": [1, 1], "padding": "valid", "data_format": "channels_last", "dilation_rate": [1, 1], "activation": "linear", "use_bias": false, "kernel_initializer": {"class_name": "VarianceScaling", "config": {"scale": 2.0, "mode": "fan_in", "distribution": "normal", "seed": null}}, "bias_initializer": {"class_name": "Zeros", "config": {}}, "kernel_regularizer": null, "bias_regularizer": null, "activity_regularizer": null, "kernel_constraint": null, "bias_constraint": null}, "inbound_nodes": [[["res4d_relu", 0, 0, {}]]]}, {"name": "bn4e_branch2a", "class_name": "BatchNormalization", "config": {"name": "bn4e_branch2a", "trainable": false, "axis": 3, "momentum": 0.99, "epsilon": 1e-05, "center": true, "scale": true, "beta_initializer": {"class_name": "Zeros", "config": {}}, "gamma_initializer": {"class_name": "Ones", "config": {}}, "moving_mean_initializer": {"class_name": "Zeros", "config": {}}, "moving_variance_initializer": {"class_name": "Ones", "config": {}}, "beta_regularizer": null, "gamma_regularizer": null, "beta_constraint": null, "gamma_constraint": null, "freeze": true}, "inbound_nodes": [[["res4e_branch2a", 0, 0, {}]]]}, {"name": "res4e_branch2a_relu", "class_name": "Activation", "config": {"name": "res4e_branch2a_relu", "trainable": true, "activation": "relu"}, "inbound_nodes": [[["bn4e_branch2a", 0, 0, {}]]]}, {"name": "padding4e_branch2b", "class_name": "ZeroPadding2D", "config": {"name": "padding4e_branch2b", "trainable": true, "padding": [[1, 1], [1, 1]], "data_format": "channels_last"}, "inbound_nodes": [[["res4e_branch2a_relu", 0, 0, {}]]]}, {"name": "res4e_branch2b", "class_name": "Conv2D", "config": {"name": "res4e_branch2b", "trainable": true, "filters": 256, "kernel_size": [3, 3], "strides": [1, 1], "padding": "valid", "data_format": "channels_last", "dilation_rate": [1, 1], "activation": "linear", "use_bias": false, "kernel_initializer": {"class_name": "VarianceScaling", "config": {"scale": 2.0, "mode": "fan_in", "distribution": "normal", "seed": null}}, "bias_initializer": {"class_name": "Zeros", "config": {}}, "kernel_regularizer": null, "bias_regularizer": null, "activity_regularizer": null, "kernel_constraint": null, "bias_constraint": null}, "inbound_nodes": [[["padding4e_branch2b", 0, 0, {}]]]}, {"name": "bn4e_branch2b", "class_name": "BatchNormalization", "config": {"name": "bn4e_branch2b", "trainable": false, "axis": 3, "momentum": 0.99, "epsilon": 1e-05, "center": true, "scale": true, "beta_initializer": {"class_name": "Zeros", "config": {}}, "gamma_initializer": {"class_name": "Ones", "config": {}}, "moving_mean_initializer": {"class_name": "Zeros", "config": {}}, "moving_variance_initializer": {"class_name": "Ones", "config": {}}, "beta_regularizer": null, "gamma_regularizer": null, "beta_constraint": null, "gamma_constraint": null, "freeze": true}, "inbound_nodes": [[["res4e_branch2b", 0, 0, {}]]]}, {"name": "res4e_branch2b_relu", "class_name": "Activation", "config": {"name": "res4e_branch2b_relu", "trainable": true, "activation": "relu"}, "inbound_nodes": [[["bn4e_branch2b", 0, 0, {}]]]}, {"name": "res4e_branch2c", "class_name": "Conv2D", "config": {"name": "res4e_branch2c", "trainable": true, "filters": 1024, "kernel_size": [1, 1], "strides": [1, 1], "padding": "valid", "data_format": "channels_last", "dilation_rate": [1, 1], "activation": "linear", "use_bias": false, "kernel_initializer": {"class_name": "VarianceScaling", "config": {"scale": 2.0, "mode": "fan_in", "distribution": "normal", "seed": null}}, "bias_initializer": {"class_name": "Zeros", "config": {}}, "kernel_regularizer": null, "bias_regularizer": null, "activity_regularizer": null, "kernel_constraint": null, "bias_constraint": null}, "inbound_nodes": [[["res4e_branch2b_relu", 0, 0, {}]]]}, {"name": "bn4e_branch2c", "class_name": "BatchNormalization", "config": {"name": "bn4e_branch2c", "trainable": false, "axis": 3, "momentum": 0.99, "epsilon": 1e-05, "center": true, "scale": true, "beta_initializer": {"class_name": "Zeros", "config": {}}, "gamma_initializer": {"class_name": "Ones", "config": {}}, "moving_mean_initializer": {"class_name": "Zeros", "config": {}}, "moving_variance_initializer": {"class_name": "Ones", "config": {}}, "beta_regularizer": null, "gamma_regularizer": null, "beta_constraint": null, "gamma_constraint": null, "freeze": true}, "inbound_nodes": [[["res4e_branch2c", 0, 0, {}]]]}, {"name": "res4e", "class_name": "Add", "config": {"name": "res4e", "trainable": true}, "inbound_nodes": [[["bn4e_branch2c", 0, 0, {}], ["res4d_relu", 0, 0, {}]]]}, {"name": "res4e_relu", "class_name": "Activation", "config": {"name": "res4e_relu", "trainable": true, "activation": "relu"}, "inbound_nodes": [[["res4e", 0, 0, {}]]]}, {"name": "res4f_branch2a", "class_name": "Conv2D", "config": {"name": "res4f_branch2a", "trainable": true, "filters": 256, "kernel_size": [1, 1], "strides": [1, 1], "padding": "valid", "data_format": "channels_last", "dilation_rate": [1, 1], "activation": "linear", "use_bias": false, "kernel_initializer": {"class_name": "VarianceScaling", "config": {"scale": 2.0, "mode": "fan_in", "distribution": "normal", "seed": null}}, "bias_initializer": {"class_name": "Zeros", "config": {}}, "kernel_regularizer": null, "bias_regularizer": null, "activity_regularizer": null, "kernel_constraint": null, "bias_constraint": null}, "inbound_nodes": [[["res4e_relu", 0, 0, {}]]]}, {"name": "bn4f_branch2a", "class_name": "BatchNormalization", "config": {"name": "bn4f_branch2a", "trainable": false, "axis": 3, "momentum": 0.99, "epsilon": 1e-05, "center": true, "scale": true, "beta_initializer": {"class_name": "Zeros", "config": {}}, "gamma_initializer": {"class_name": "Ones", "config": {}}, "moving_mean_initializer": {"class_name": "Zeros", "config": {}}, "moving_variance_initializer": {"class_name": "Ones", "config": {}}, "beta_regularizer": null, "gamma_regularizer": null, "beta_constraint": null, "gamma_constraint": null, "freeze": true}, "inbound_nodes": [[["res4f_branch2a", 0, 0, {}]]]}, {"name": "res4f_branch2a_relu", "class_name": "Activation", "config": {"name": "res4f_branch2a_relu", "trainable": true, "activation": "relu"}, "inbound_nodes": [[["bn4f_branch2a", 0, 0, {}]]]}, {"name": "padding4f_branch2b", "class_name": "ZeroPadding2D", "config": {"name": "padding4f_branch2b", "trainable": true, "padding": [[1, 1], [1, 1]], "data_format": "channels_last"}, "inbound_nodes": [[["res4f_branch2a_relu", 0, 0, {}]]]}, {"name": "res4f_branch2b", "class_name": "Conv2D", "config": {"name": "res4f_branch2b", "trainable": true, "filters": 256, "kernel_size": [3, 3], "strides": [1, 1], "padding": "valid", "data_format": "channels_last", "dilation_rate": [1, 1], "activation": "linear", "use_bias": false, "kernel_initializer": {"class_name": "VarianceScaling", "config": {"scale": 2.0, "mode": "fan_in", "distribution": "normal", "seed": null}}, "bias_initializer": {"class_name": "Zeros", "config": {}}, "kernel_regularizer": null, "bias_regularizer": null, "activity_regularizer": null, "kernel_constraint": null, "bias_constraint": null}, "inbound_nodes": [[["padding4f_branch2b", 0, 0, {}]]]}, {"name": "bn4f_branch2b", "class_name": "BatchNormalization", "config": {"name": "bn4f_branch2b", "trainable": false, "axis": 3, "momentum": 0.99, "epsilon": 1e-05, "center": true, "scale": true, "beta_initializer": {"class_name": "Zeros", "config": {}}, "gamma_initializer": {"class_name": "Ones", "config": {}}, "moving_mean_initializer": {"class_name": "Zeros", "config": {}}, "moving_variance_initializer": {"class_name": "Ones", "config": {}}, "beta_regularizer": null, "gamma_regularizer": null, "beta_constraint": null, "gamma_constraint": null, "freeze": true}, "inbound_nodes": [[["res4f_branch2b", 0, 0, {}]]]}, {"name": "res4f_branch2b_relu", "class_name": "Activation", "config": {"name": "res4f_branch2b_relu", "trainable": true, "activation": "relu"}, "inbound_nodes": [[["bn4f_branch2b", 0, 0, {}]]]}, {"name": "res4f_branch2c", "class_name": "Conv2D", "config": {"name": "res4f_branch2c", "trainable": true, "filters": 1024, "kernel_size": [1, 1], "strides": [1, 1], "padding": "valid", "data_format": "channels_last", "dilation_rate": [1, 1], "activation": "linear", "use_bias": false, "kernel_initializer": {"class_name": "VarianceScaling", "config": {"scale": 2.0, "mode": "fan_in", "distribution": "normal", "seed": null}}, "bias_initializer": {"class_name": "Zeros", "config": {}}, "kernel_regularizer": null, "bias_regularizer": null, "activity_regularizer": null, "kernel_constraint": null, "bias_constraint": null}, "inbound_nodes": [[["res4f_branch2b_relu", 0, 0, {}]]]}, {"name": "bn4f_branch2c", "class_name": "BatchNormalization", "config": {"name": "bn4f_branch2c", "trainable": false, "axis": 3, "momentum": 0.99, "epsilon": 1e-05, "center": true, "scale": true, "beta_initializer": {"class_name": "Zeros", "config": {}}, "gamma_initializer": {"class_name": "Ones", "config": {}}, "moving_mean_initializer": {"class_name": "Zeros", "config": {}}, "moving_variance_initializer": {"class_name": "Ones", "config": {}}, "beta_regularizer": null, "gamma_regularizer": null, "beta_constraint": null, "gamma_constraint": null, "freeze": true}, "inbound_nodes": [[["res4f_branch2c", 0, 0, {}]]]}, {"name": "res4f", "class_name": "Add", "config": {"name": "res4f", "trainable": true}, "inbound_nodes": [[["bn4f_branch2c", 0, 0, {}], ["res4e_relu", 0, 0, {}]]]}, {"name": "res4f_relu", "class_name": "Activation", "config": {"name": "res4f_relu", "trainable": true, "activation": "relu"}, "inbound_nodes": [[["res4f", 0, 0, {}]]]}, {"name": "res5a_branch2a", "class_name": "Conv2D", "config": {"name": "res5a_branch2a", "trainable": true, "filters": 512, "kernel_size": [1, 1], "strides": [2, 2], "padding": "valid", "data_format": "channels_last", "dilation_rate": [1, 1], "activation": "linear", "use_bias": false, "kernel_initializer": {"class_name": "VarianceScaling", "config": {"scale": 2.0, "mode": "fan_in", "distribution": "normal", "seed": null}}, "bias_initializer": {"class_name": "Zeros", "config": {}}, "kernel_regularizer": null, "bias_regularizer": null, "activity_regularizer": null, "kernel_constraint": null, "bias_constraint": null}, "inbound_nodes": [[["res4f_relu", 0, 0, {}]]]}, {"name": "bn5a_branch2a", "class_name": "BatchNormalization", "config": {"name": "bn5a_branch2a", "trainable": false, "axis": 3, "momentum": 0.99, "epsilon": 1e-05, "center": true, "scale": true, "beta_initializer": {"class_name": "Zeros", "config": {}}, "gamma_initializer": {"class_name": "Ones", "config": {}}, "moving_mean_initializer": {"class_name": "Zeros", "config": {}}, "moving_variance_initializer": {"class_name": "Ones", "config": {}}, "beta_regularizer": null, "gamma_regularizer": null, "beta_constraint": null, "gamma_constraint": null, "freeze": true}, "inbound_nodes": [[["res5a_branch2a", 0, 0, {}]]]}, {"name": "res5a_branch2a_relu", "class_name": "Activation", "config": {"name": "res5a_branch2a_relu", "trainable": true, "activation": "relu"}, "inbound_nodes": [[["bn5a_branch2a", 0, 0, {}]]]}, {"name": "padding5a_branch2b", "class_name": "ZeroPadding2D", "config": {"name": "padding5a_branch2b", "trainable": true, "padding": [[1, 1], [1, 1]], "data_format": "channels_last"}, "inbound_nodes": [[["res5a_branch2a_relu", 0, 0, {}]]]}, {"name": "res5a_branch2b", "class_name": "Conv2D", "config": {"name": "res5a_branch2b", "trainable": true, "filters": 512, "kernel_size": [3, 3], "strides": [1, 1], "padding": "valid", "data_format": "channels_last", "dilation_rate": [1, 1], "activation": "linear", "use_bias": false, "kernel_initializer": {"class_name": "VarianceScaling", "config": {"scale": 2.0, "mode": "fan_in", "distribution": "normal", "seed": null}}, "bias_initializer": {"class_name": "Zeros", "config": {}}, "kernel_regularizer": null, "bias_regularizer": null, "activity_regularizer": null, "kernel_constraint": null, "bias_constraint": null}, "inbound_nodes": [[["padding5a_branch2b", 0, 0, {}]]]}, {"name": "bn5a_branch2b", "class_name": "BatchNormalization", "config": {"name": "bn5a_branch2b", "trainable": false, "axis": 3, "momentum": 0.99, "epsilon": 1e-05, "center": true, "scale": true, "beta_initializer": {"class_name": "Zeros", "config": {}}, "gamma_initializer": {"class_name": "Ones", "config": {}}, "moving_mean_initializer": {"class_name": "Zeros", "config": {}}, "moving_variance_initializer": {"class_name": "Ones", "config": {}}, "beta_regularizer": null, "gamma_regularizer": null, "beta_constraint": null, "gamma_constraint": null, "freeze": true}, "inbound_nodes": [[["res5a_branch2b", 0, 0, {}]]]}, {"name": "res5a_branch2b_relu", "class_name": "Activation", "config": {"name": "res5a_branch2b_relu", "trainable": true, "activation": "relu"}, "inbound_nodes": [[["bn5a_branch2b", 0, 0, {}]]]}, {"name": "res5a_branch2c", "class_name": "Conv2D", "config": {"name": "res5a_branch2c", "trainable": true, "filters": 2048, "kernel_size": [1, 1], "strides": [1, 1], "padding": "valid", "data_format": "channels_last", "dilation_rate": [1, 1], "activation": "linear", "use_bias": false, "kernel_initializer": {"class_name": "VarianceScaling", "config": {"scale": 2.0, "mode": "fan_in", "distribution": "normal", "seed": null}}, "bias_initializer": {"class_name": "Zeros", "config": {}}, "kernel_regularizer": null, "bias_regularizer": null, "activity_regularizer": null, "kernel_constraint": null, "bias_constraint": null}, "inbound_nodes": [[["res5a_branch2b_relu", 0, 0, {}]]]}, {"name": "res5a_branch1", "class_name": "Conv2D", "config": {"name": "res5a_branch1", "trainable": true, "filters": 2048, "kernel_size": [1, 1], "strides": [2, 2], "padding": "valid", "data_format": "channels_last", "dilation_rate": [1, 1], "activation": "linear", "use_bias": false, "kernel_initializer": {"class_name": "VarianceScaling", "config": {"scale": 2.0, "mode": "fan_in", "distribution": "normal", "seed": null}}, "bias_initializer": {"class_name": "Zeros", "config": {}}, "kernel_regularizer": null, "bias_regularizer": null, "activity_regularizer": null, "kernel_constraint": null, "bias_constraint": null}, "inbound_nodes": [[["res4f_relu", 0, 0, {}]]]}, {"name": "bn5a_branch2c", "class_name": "BatchNormalization", "config": {"name": "bn5a_branch2c", "trainable": false, "axis": 3, "momentum": 0.99, "epsilon": 1e-05, "center": true, "scale": true, "beta_initializer": {"class_name": "Zeros", "config": {}}, "gamma_initializer": {"class_name": "Ones", "config": {}}, "moving_mean_initializer": {"class_name": "Zeros", "config": {}}, "moving_variance_initializer": {"class_name": "Ones", "config": {}}, "beta_regularizer": null, "gamma_regularizer": null, "beta_constraint": null, "gamma_constraint": null, "freeze": true}, "inbound_nodes": [[["res5a_branch2c", 0, 0, {}]]]}, {"name": "bn5a_branch1", "class_name": "BatchNormalization", "config": {"name": "bn5a_branch1", "trainable": false, "axis": 3, "momentum": 0.99, "epsilon": 1e-05, "center": true, "scale": true, "beta_initializer": {"class_name": "Zeros", "config": {}}, "gamma_initializer": {"class_name": "Ones", "config": {}}, "moving_mean_initializer": {"class_name": "Zeros", "config": {}}, "moving_variance_initializer": {"class_name": "Ones", "config": {}}, "beta_regularizer": null, "gamma_regularizer": null, "beta_constraint": null, "gamma_constraint": null, "freeze": true}, "inbound_nodes": [[["res5a_branch1", 0, 0, {}]]]}, {"name": "res5a", "class_name": "Add", "config": {"name": "res5a", "trainable": true}, "inbound_nodes": [[["bn5a_branch2c", 0, 0, {}], ["bn5a_branch1", 0, 0, {}]]]}, {"name": "res5a_relu", "class_name": "Activation", "config": {"name": "res5a_relu", "trainable": true, "activation": "relu"}, "inbound_nodes": [[["res5a", 0, 0, {}]]]}, {"name": "res5b_branch2a", "class_name": "Conv2D", "config": {"name": "res5b_branch2a", "trainable": true, "filters": 512, "kernel_size": [1, 1], "strides": [1, 1], "padding": "valid", "data_format": "channels_last", "dilation_rate": [1, 1], "activation": "linear", "use_bias": false, "kernel_initializer": {"class_name": "VarianceScaling", "config": {"scale": 2.0, "mode": "fan_in", "distribution": "normal", "seed": null}}, "bias_initializer": {"class_name": "Zeros", "config": {}}, "kernel_regularizer": null, "bias_regularizer": null, "activity_regularizer": null, "kernel_constraint": null, "bias_constraint": null}, "inbound_nodes": [[["res5a_relu", 0, 0, {}]]]}, {"name": "bn5b_branch2a", "class_name": "BatchNormalization", "config": {"name": "bn5b_branch2a", "trainable": false, "axis": 3, "momentum": 0.99, "epsilon": 1e-05, "center": true, "scale": true, "beta_initializer": {"class_name": "Zeros", "config": {}}, "gamma_initializer": {"class_name": "Ones", "config": {}}, "moving_mean_initializer": {"class_name": "Zeros", "config": {}}, "moving_variance_initializer": {"class_name": "Ones", "config": {}}, "beta_regularizer": null, "gamma_regularizer": null, "beta_constraint": null, "gamma_constraint": null, "freeze": true}, "inbound_nodes": [[["res5b_branch2a", 0, 0, {}]]]}, {"name": "res5b_branch2a_relu", "class_name": "Activation", "config": {"name": "res5b_branch2a_relu", "trainable": true, "activation": "relu"}, "inbound_nodes": [[["bn5b_branch2a", 0, 0, {}]]]}, {"name": "padding5b_branch2b", "class_name": "ZeroPadding2D", "config": {"name": "padding5b_branch2b", "trainable": true, "padding": [[1, 1], [1, 1]], "data_format": "channels_last"}, "inbound_nodes": [[["res5b_branch2a_relu", 0, 0, {}]]]}, {"name": "res5b_branch2b", "class_name": "Conv2D", "config": {"name": "res5b_branch2b", "trainable": true, "filters": 512, "kernel_size": [3, 3], "strides": [1, 1], "padding": "valid", "data_format": "channels_last", "dilation_rate": [1, 1], "activation": "linear", "use_bias": false, "kernel_initializer": {"class_name": "VarianceScaling", "config": {"scale": 2.0, "mode": "fan_in", "distribution": "normal", "seed": null}}, "bias_initializer": {"class_name": "Zeros", "config": {}}, "kernel_regularizer": null, "bias_regularizer": null, "activity_regularizer": null, "kernel_constraint": null, "bias_constraint": null}, "inbound_nodes": [[["padding5b_branch2b", 0, 0, {}]]]}, {"name": "bn5b_branch2b", "class_name": "BatchNormalization", "config": {"name": "bn5b_branch2b", "trainable": false, "axis": 3, "momentum": 0.99, "epsilon": 1e-05, "center": true, "scale": true, "beta_initializer": {"class_name": "Zeros", "config": {}}, "gamma_initializer": {"class_name": "Ones", "config": {}}, "moving_mean_initializer": {"class_name": "Zeros", "config": {}}, "moving_variance_initializer": {"class_name": "Ones", "config": {}}, "beta_regularizer": null, "gamma_regularizer": null, "beta_constraint": null, "gamma_constraint": null, "freeze": true}, "inbound_nodes": [[["res5b_branch2b", 0, 0, {}]]]}, {"name": "res5b_branch2b_relu", "class_name": "Activation", "config": {"name": "res5b_branch2b_relu", "trainable": true, "activation": "relu"}, "inbound_nodes": [[["bn5b_branch2b", 0, 0, {}]]]}, {"name": "res5b_branch2c", "class_name": "Conv2D", "config": {"name": "res5b_branch2c", "trainable": true, "filters": 2048, "kernel_size": [1, 1], "strides": [1, 1], "padding": "valid", "data_format": "channels_last", "dilation_rate": [1, 1], "activation": "linear", "use_bias": false, "kernel_initializer": {"class_name": "VarianceScaling", "config": {"scale": 2.0, "mode": "fan_in", "distribution": "normal", "seed": null}}, "bias_initializer": {"class_name": "Zeros", "config": {}}, "kernel_regularizer": null, "bias_regularizer": null, "activity_regularizer": null, "kernel_constraint": null, "bias_constraint": null}, "inbound_nodes": [[["res5b_branch2b_relu", 0, 0, {}]]]}, {"name": "bn5b_branch2c", "class_name": "BatchNormalization", "config": {"name": "bn5b_branch2c", "trainable": false, "axis": 3, "momentum": 0.99, "epsilon": 1e-05, "center": true, "scale": true, "beta_initializer": {"class_name": "Zeros", "config": {}}, "gamma_initializer": {"class_name": "Ones", "config": {}}, "moving_mean_initializer": {"class_name": "Zeros", "config": {}}, "moving_variance_initializer": {"class_name": "Ones", "config": {}}, "beta_regularizer": null, "gamma_regularizer": null, "beta_constraint": null, "gamma_constraint": null, "freeze": true}, "inbound_nodes": [[["res5b_branch2c", 0, 0, {}]]]}, {"name": "res5b", "class_name": "Add", "config": {"name": "res5b", "trainable": true}, "inbound_nodes": [[["bn5b_branch2c", 0, 0, {}], ["res5a_relu", 0, 0, {}]]]}, {"name": "res5b_relu", "class_name": "Activation", "config": {"name": "res5b_relu", "trainable": true, "activation": "relu"}, "inbound_nodes": [[["res5b", 0, 0, {}]]]}, {"name": "res5c_branch2a", "class_name": "Conv2D", "config": {"name": "res5c_branch2a", "trainable": true, "filters": 512, "kernel_size": [1, 1], "strides": [1, 1], "padding": "valid", "data_format": "channels_last", "dilation_rate": [1, 1], "activation": "linear", "use_bias": false, "kernel_initializer": {"class_name": "VarianceScaling", "config": {"scale": 2.0, "mode": "fan_in", "distribution": "normal", "seed": null}}, "bias_initializer": {"class_name": "Zeros", "config": {}}, "kernel_regularizer": null, "bias_regularizer": null, "activity_regularizer": null, "kernel_constraint": null, "bias_constraint": null}, "inbound_nodes": [[["res5b_relu", 0, 0, {}]]]}, {"name": "bn5c_branch2a", "class_name": "BatchNormalization", "config": {"name": "bn5c_branch2a", "trainable": false, "axis": 3, "momentum": 0.99, "epsilon": 1e-05, "center": true, "scale": true, "beta_initializer": {"class_name": "Zeros", "config": {}}, "gamma_initializer": {"class_name": "Ones", "config": {}}, "moving_mean_initializer": {"class_name": "Zeros", "config": {}}, "moving_variance_initializer": {"class_name": "Ones", "config": {}}, "beta_regularizer": null, "gamma_regularizer": null, "beta_constraint": null, "gamma_constraint": null, "freeze": true}, "inbound_nodes": [[["res5c_branch2a", 0, 0, {}]]]}, {"name": "res5c_branch2a_relu", "class_name": "Activation", "config": {"name": "res5c_branch2a_relu", "trainable": true, "activation": "relu"}, "inbound_nodes": [[["bn5c_branch2a", 0, 0, {}]]]}, {"name": "padding5c_branch2b", "class_name": "ZeroPadding2D", "config": {"name": "padding5c_branch2b", "trainable": true, "padding": [[1, 1], [1, 1]], "data_format": "channels_last"}, "inbound_nodes": [[["res5c_branch2a_relu", 0, 0, {}]]]}, {"name": "res5c_branch2b", "class_name": "Conv2D", "config": {"name": "res5c_branch2b", "trainable": true, "filters": 512, "kernel_size": [3, 3], "strides": [1, 1], "padding": "valid", "data_format": "channels_last", "dilation_rate": [1, 1], "activation": "linear", "use_bias": false, "kernel_initializer": {"class_name": "VarianceScaling", "config": {"scale": 2.0, "mode": "fan_in", "distribution": "normal", "seed": null}}, "bias_initializer": {"class_name": "Zeros", "config": {}}, "kernel_regularizer": null, "bias_regularizer": null, "activity_regularizer": null, "kernel_constraint": null, "bias_constraint": null}, "inbound_nodes": [[["padding5c_branch2b", 0, 0, {}]]]}, {"name": "bn5c_branch2b", "class_name": "BatchNormalization", "config": {"name": "bn5c_branch2b", "trainable": false, "axis": 3, "momentum": 0.99, "epsilon": 1e-05, "center": true, "scale": true, "beta_initializer": {"class_name": "Zeros", "config": {}}, "gamma_initializer": {"class_name": "Ones", "config": {}}, "moving_mean_initializer": {"class_name": "Zeros", "config": {}}, "moving_variance_initializer": {"class_name": "Ones", "config": {}}, "beta_regularizer": null, "gamma_regularizer": null, "beta_constraint": null, "gamma_constraint": null, "freeze": true}, "inbound_nodes": [[["res5c_branch2b", 0, 0, {}]]]}, {"name": "res5c_branch2b_relu", "class_name": "Activation", "config": {"name": "res5c_branch2b_relu", "trainable": true, "activation": "relu"}, "inbound_nodes": [[["bn5c_branch2b", 0, 0, {}]]]}, {"name": "res5c_branch2c", "class_name": "Conv2D", "config": {"name": "res5c_branch2c", "trainable": true, "filters": 2048, "kernel_size": [1, 1], "strides": [1, 1], "padding": "valid", "data_format": "channels_last", "dilation_rate": [1, 1], "activation": "linear", "use_bias": false, "kernel_initializer": {"class_name": "VarianceScaling", "config": {"scale": 2.0, "mode": "fan_in", "distribution": "normal", "seed": null}}, "bias_initializer": {"class_name": "Zeros", "config": {}}, "kernel_regularizer": null, "bias_regularizer": null, "activity_regularizer": null, "kernel_constraint": null, "bias_constraint": null}, "inbound_nodes": [[["res5c_branch2b_relu", 0, 0, {}]]]}, {"name": "bn5c_branch2c", "class_name": "BatchNormalization", "config": {"name": "bn5c_branch2c", "trainable": false, "axis": 3, "momentum": 0.99, "epsilon": 1e-05, "center": true, "scale": true, "beta_initializer": {"class_name": "Zeros", "config": {}}, "gamma_initializer": {"class_name": "Ones", "config": {}}, "moving_mean_initializer": {"class_name": "Zeros", "config": {}}, "moving_variance_initializer": {"class_name": "Ones", "config": {}}, "beta_regularizer": null, "gamma_regularizer": null, "beta_constraint": null, "gamma_constraint": null, "freeze": true}, "inbound_nodes": [[["res5c_branch2c", 0, 0, {}]]]}, {"name": "res5c", "class_name": "Add", "config": {"name": "res5c", "trainable": true}, "inbound_nodes": [[["bn5c_branch2c", 0, 0, {}], ["res5b_relu", 0, 0, {}]]]}, {"name": "res5c_relu", "class_name": "Activation", "config": {"name": "res5c_relu", "trainable": true, "activation": "relu"}, "inbound_nodes": [[["res5c", 0, 0, {}]]]}, {"name": "C5_reduced", "class_name": "Conv2D", "config": {"name": "C5_reduced", "trainable": true, "filters": 256, "kernel_size": [1, 1], "strides": [1, 1], "padding": "same", "data_format": "channels_last", "dilation_rate": [1, 1], "activation": "linear", "use_bias": true, "kernel_initializer": {"class_name": "VarianceScaling", "config": {"scale": 1.0, "mode": "fan_avg", "distribution": "uniform", "seed": null}}, "bias_initializer": {"class_name": "Zeros", "config": {}}, "kernel_regularizer": null, "bias_regularizer": null, "activity_regularizer": null, "kernel_constraint": null, "bias_constraint": null}, "inbound_nodes": [[["res5c_relu", 0, 0, {}]]]}, {"name": "P5_upsampled", "class_name": "UpsampleLike", "config": {"name": "P5_upsampled", "trainable": true}, "inbound_nodes": [[["C5_reduced", 0, 0, {}], ["res4f_relu", 0, 0, {}]]]}, {"name": "C4_reduced", "class_name": "Conv2D", "config": {"name": "C4_reduced", "trainable": true, "filters": 256, "kernel_size": [1, 1], "strides": [1, 1], "padding": "same", "data_format": "channels_last", "dilation_rate": [1, 1], "activation": "linear", "use_bias": true, "kernel_initializer": {"class_name": "VarianceScaling", "config": {"scale": 1.0, "mode": "fan_avg", "distribution": "uniform", "seed": null}}, "bias_initializer": {"class_name": "Zeros", "config": {}}, "kernel_regularizer": null, "bias_regularizer": null, "activity_regularizer": null, "kernel_constraint": null, "bias_constraint": null}, "inbound_nodes": [[["res4f_relu", 0, 0, {}]]]}, {"name": "P4_merged", "class_name": "Add", "config": {"name": "P4_merged", "trainable": true}, "inbound_nodes": [[["P5_upsampled", 0, 0, {}], ["C4_reduced", 0, 0, {}]]]}, {"name": "P4_upsampled", "class_name": "UpsampleLike", "config": {"name": "P4_upsampled", "trainable": true}, "inbound_nodes": [[["P4_merged", 0, 0, {}], ["res3d_relu", 0, 0, {}]]]}, {"name": "C3_reduced", "class_name": "Conv2D", "config": {"name": "C3_reduced", "trainable": true, "filters": 256, "kernel_size": [1, 1], "strides": [1, 1], "padding": "same", "data_format": "channels_last", "dilation_rate": [1, 1], "activation": "linear", "use_bias": true, "kernel_initializer": {"class_name": "VarianceScaling", "config": {"scale": 1.0, "mode": "fan_avg", "distribution": "uniform", "seed": null}}, "bias_initializer": {"class_name": "Zeros", "config": {}}, "kernel_regularizer": null, "bias_regularizer": null, "activity_regularizer": null, "kernel_constraint": null, "bias_constraint": null}, "inbound_nodes": [[["res3d_relu", 0, 0, {}]]]}, {"name": "P6", "class_name": "Conv2D", "config": {"name": "P6", "trainable": true, "filters": 256, "kernel_size": [3, 3], "strides": [2, 2], "padding": "same", "data_format": "channels_last", "dilation_rate": [1, 1], "activation": "linear", "use_bias": true, "kernel_initializer": {"class_name": "VarianceScaling", "config": {"scale": 1.0, "mode": "fan_avg", "distribution": "uniform", "seed": null}}, "bias_initializer": {"class_name": "Zeros", "config": {}}, "kernel_regularizer": null, "bias_regularizer": null, "activity_regularizer": null, "kernel_constraint": null, "bias_constraint": null}, "inbound_nodes": [[["res5c_relu", 0, 0, {}]]]}, {"name": "P3_merged", "class_name": "Add", "config": {"name": "P3_merged", "trainable": true}, "inbound_nodes": [[["P4_upsampled", 0, 0, {}], ["C3_reduced", 0, 0, {}]]]}, {"name": "C6_relu", "class_name": "Activation", "config": {"name": "C6_relu", "trainable": true, "activation": "relu"}, "inbound_nodes": [[["P6", 0, 0, {}]]]}, {"name": "P3", "class_name": "Conv2D", "config": {"name": "P3", "trainable": true, "filters": 256, "kernel_size": [3, 3], "strides": [1, 1], "padding": "same", "data_format": "channels_last", "dilation_rate": [1, 1], "activation": "linear", "use_bias": true, "kernel_initializer": {"class_name": "VarianceScaling", "config": {"scale": 1.0, "mode": "fan_avg", "distribution": "uniform", "seed": null}}, "bias_initializer": {"class_name": "Zeros", "config": {}}, "kernel_regularizer": null, "bias_regularizer": null, "activity_regularizer": null, "kernel_constraint": null, "bias_constraint": null}, "inbound_nodes": [[["P3_merged", 0, 0, {}]]]}, {"name": "P4", "class_name": "Conv2D", "config": {"name": "P4", "trainable": true, "filters": 256, "kernel_size": [3, 3], "strides": [1, 1], "padding": "same", "data_format": "channels_last", "dilation_rate": [1, 1], "activation": "linear", "use_bias": true, "kernel_initializer": {"class_name": "VarianceScaling", "config": {"scale": 1.0, "mode": "fan_avg", "distribution": "uniform", "seed": null}}, "bias_initializer": {"class_name": "Zeros", "config": {}}, "kernel_regularizer": null, "bias_regularizer": null, "activity_regularizer": null, "kernel_constraint": null, "bias_constraint": null}, "inbound_nodes": [[["P4_merged", 0, 0, {}]]]}, {"name": "P5", "class_name": "Conv2D", "config": {"name": "P5", "trainable": true, "filters": 256, "kernel_size": [3, 3], "strides": [1, 1], "padding": "same", "data_format": "channels_last", "dilation_rate": [1, 1], "activation": "linear", "use_bias": true, "kernel_initializer": {"class_name": "VarianceScaling", "config": {"scale": 1.0, "mode": "fan_avg", "distribution": "uniform", "seed": null}}, "bias_initializer": {"class_name": "Zeros", "config": {}}, "kernel_regularizer": null, "bias_regularizer": null, "activity_regularizer": null, "kernel_constraint": null, "bias_constraint": null}, "inbound_nodes": [[["C5_reduced", 0, 0, {}]]]}, {"name": "P7", "class_name": "Conv2D", "config": {"name": "P7", "trainable": true, "filters": 256, "kernel_size": [3, 3], "strides": [2, 2], "padding": "same", "data_format": "channels_last", "dilation_rate": [1, 1], "activation": "linear", "use_bias": true, "kernel_initializer": {"class_name": "VarianceScaling", "config": {"scale": 1.0, "mode": "fan_avg", "distribution": "uniform", "seed": null}}, "bias_initializer": {"class_name": "Zeros", "config": {}}, "kernel_regularizer": null, "bias_regularizer": null, "activity_regularizer": null, "kernel_constraint": null, "bias_constraint": null}, "inbound_nodes": [[["C6_relu", 0, 0, {}]]]}, {"name": "anchors_0", "class_name": "Anchors", "config": {"name": "anchors_0", "trainable": true, "size": 32, "stride": 8, "ratios": [0.5, 1.0, 2.0], "scales": [1.0, 1.2599210739135742, 1.587401032447815]}, "inbound_nodes": [[["P3", 0, 0, {}]]]}, {"name": "anchors_1", "class_name": "Anchors", "config": {"name": "anchors_1", "trainable": true, "size": 64, "stride": 16, "ratios": [0.5, 1.0, 2.0], "scales": [1.0, 1.2599210739135742, 1.587401032447815]}, "inbound_nodes": [[["P4", 0, 0, {}]]]}, {"name": "anchors_2", "class_name": "Anchors", "config": {"name": "anchors_2", "trainable": true, "size": 128, "stride": 32, "ratios": [0.5, 1.0, 2.0], "scales": [1.0, 1.2599210739135742, 1.587401032447815]}, "inbound_nodes": [[["P5", 0, 0, {}]]]}, {"name": "anchors_3", "class_name": "Anchors", "config": {"name": "anchors_3", "trainable": true, "size": 256, "stride": 64, "ratios": [0.5, 1.0, 2.0], "scales": [1.0, 1.2599210739135742, 1.587401032447815]}, "inbound_nodes": [[["P6", 0, 0, {}]]]}, {"name": "anchors_4", "class_name": "Anchors", "config": {"name": "anchors_4", "trainable": true, "size": 512, "stride": 128, "ratios": [0.5, 1.0, 2.0], "scales": [1.0, 1.2599210739135742, 1.587401032447815]}, "inbound_nodes": [[["P7", 0, 0, {}]]]}, {"name": "regression_submodel", "class_name": "Model", "config": {"name": "regression_submodel", "layers": [{"name": "input_2", "class_name": "InputLayer", "config": {"batch_input_shape": [null, null, null, 256], "dtype": "float32", "sparse": false, "name": "input_2"}, "inbound_nodes": []}, {"name": "pyramid_regression_0", "class_name": "Conv2D", "config": {"name": "pyramid_regression_0", "trainable": true, "filters": 256, "kernel_size": [3, 3], "strides": [1, 1], "padding": "same", "data_format": "channels_last", "dilation_rate": [1, 1], "activation": "relu", "use_bias": true, "kernel_initializer": {"class_name": "RandomNormal", "config": {"mean": 0.0, "stddev": 0.01, "seed": null}}, "bias_initializer": {"class_name": "Zeros", "config": {}}, "kernel_regularizer": null, "bias_regularizer": null, "activity_regularizer": null, "kernel_constraint": null, "bias_constraint": null}, "inbound_nodes": [[["input_2", 0, 0, {}]]]}, {"name": "pyramid_regression_1", "class_name": "Conv2D", "config": {"name": "pyramid_regression_1", "trainable": true, "filters": 256, "kernel_size": [3, 3], "strides": [1, 1], "padding": "same", "data_format": "channels_last", "dilation_rate": [1, 1], "activation": "relu", "use_bias": true, "kernel_initializer": {"class_name": "RandomNormal", "config": {"mean": 0.0, "stddev": 0.01, "seed": null}}, "bias_initializer": {"class_name": "Zeros", "config": {}}, "kernel_regularizer": null, "bias_regularizer": null, "activity_regularizer": null, "kernel_constraint": null, "bias_constraint": null}, "inbound_nodes": [[["pyramid_regression_0", 0, 0, {}]]]}, {"name": "pyramid_regression_2", "class_name": "Conv2D", "config": {"name": "pyramid_regression_2", "trainable": true, "filters": 256, "kernel_size": [3, 3], "strides": [1, 1], "padding": "same", "data_format": "channels_last", "dilation_rate": [1, 1], "activation": "relu", "use_bias": true, "kernel_initializer": {"class_name": "RandomNormal", "config": {"mean": 0.0, "stddev": 0.01, "seed": null}}, "bias_initializer": {"class_name": "Zeros", "config": {}}, "kernel_regularizer": null, "bias_regularizer": null, "activity_regularizer": null, "kernel_constraint": null, "bias_constraint": null}, "inbound_nodes": [[["pyramid_regression_1", 0, 0, {}]]]}, {"name": "pyramid_regression_3", "class_name": "Conv2D", "config": {"name": "pyramid_regression_3", "trainable": true, "filters": 256, "kernel_size": [3, 3], "strides": [1, 1], "padding": "same", "data_format": "channels_last", "dilation_rate": [1, 1], "activation": "relu", "use_bias": true, "kernel_initializer": {"class_name": "RandomNormal", "config": {"mean": 0.0, "stddev": 0.01, "seed": null}}, "bias_initializer": {"class_name": "Zeros", "config": {}}, "kernel_regularizer": null, "bias_regularizer": null, "activity_regularizer": null, "kernel_constraint": null, "bias_constraint": null}, "inbound_nodes": [[["pyramid_regression_2", 0, 0, {}]]]}, {"name": "pyramid_regression", "class_name": "Conv2D", "config": {"name": "pyramid_regression", "trainable": true, "filters": 36, "kernel_size": [3, 3], "strides": [1, 1], "padding": "same", "data_format": "channels_last", "dilation_rate": [1, 1], "activation": "linear", "use_bias": true, "kernel_initializer": {"class_name": "RandomNormal", "config": {"mean": 0.0, "stddev": 0.01, "seed": null}}, "bias_initializer": {"class_name": "Zeros", "config": {}}, "kernel_regularizer": null, "bias_regularizer": null, "activity_regularizer": null, "kernel_constraint": null, "bias_constraint": null}, "inbound_nodes": [[["pyramid_regression_3", 0, 0, {}]]]}, {"name": "pyramid_regression_reshape", "class_name": "Reshape", "config": {"name": "pyramid_regression_reshape", "trainable": true, "target_shape": [-1, 4]}, "inbound_nodes": [[["pyramid_regression", 0, 0, {}]]]}], "input_layers": [["input_2", 0, 0]], "output_layers": [["pyramid_regression_reshape", 0, 0]]}, "inbound_nodes": [[["P3", 0, 0, {}]], [["P4", 0, 0, {}]], [["P5", 0, 0, {}]], [["P6", 0, 0, {}]], [["P7", 0, 0, {}]]]}, {"name": "anchors", "class_name": "Concatenate", "config": {"name": "anchors", "trainable": true, "axis": 1}, "inbound_nodes": [[["anchors_0", 0, 0, {}], ["anchors_1", 0, 0, {}], ["anchors_2", 0, 0, {}], ["anchors_3", 0, 0, {}], ["anchors_4", 0, 0, {}]]]}, {"name": "regression", "class_name": "Concatenate", "config": {"name": "regression", "trainable": true, "axis": 1}, "inbound_nodes": [[["regression_submodel", 1, 0, {}], ["regression_submodel", 2, 0, {}], ["regression_submodel", 3, 0, {}], ["regression_submodel", 4, 0, {}], ["regression_submodel", 5, 0, {}]]]}, {"name": "boxes", "class_name": "RegressBoxes", "config": {"name": "boxes", "trainable": true, "mean": [0, 0, 0, 0], "std": [0.2, 0.2, 0.2, 0.2]}, "inbound_nodes": [[["anchors", 0, 0, {}], ["regression", 0, 0, {}]]]}, {"name": "classification_submodel", "class_name": "Model", "config": {"name": "classification_submodel", "layers": [{"name": "input_3", "class_name": "InputLayer", "config": {"batch_input_shape": [null, null, null, 256], "dtype": "float32", "sparse": false, "name": "input_3"}, "inbound_nodes": []}, {"name": "pyramid_classification_0", "class_name": "Conv2D", "config": {"name": "pyramid_classification_0", "trainable": true, "filters": 256, "kernel_size": [3, 3], "strides": [1, 1], "padding": "same", "data_format": "channels_last", "dilation_rate": [1, 1], "activation": "relu", "use_bias": true, "kernel_initializer": {"class_name": "RandomNormal", "config": {"mean": 0.0, "stddev": 0.01, "seed": null}}, "bias_initializer": {"class_name": "Zeros", "config": {}}, "kernel_regularizer": null, "bias_regularizer": null, "activity_regularizer": null, "kernel_constraint": null, "bias_constraint": null}, "inbound_nodes": [[["input_3", 0, 0, {}]]]}, {"name": "pyramid_classification_1", "class_name": "Conv2D", "config": {"name": "pyramid_classification_1", "trainable": true, "filters": 256, "kernel_size": [3, 3], "strides": [1, 1], "padding": "same", "data_format": "channels_last", "dilation_rate": [1, 1], "activation": "relu", "use_bias": true, "kernel_initializer": {"class_name": "RandomNormal", "config": {"mean": 0.0, "stddev": 0.01, "seed": null}}, "bias_initializer": {"class_name": "Zeros", "config": {}}, "kernel_regularizer": null, "bias_regularizer": null, "activity_regularizer": null, "kernel_constraint": null, "bias_constraint": null}, "inbound_nodes": [[["pyramid_classification_0", 0, 0, {}]]]}, {"name": "pyramid_classification_2", "class_name": "Conv2D", "config": {"name": "pyramid_classification_2", "trainable": true, "filters": 256, "kernel_size": [3, 3], "strides": [1, 1], "padding": "same", "data_format": "channels_last", "dilation_rate": [1, 1], "activation": "relu", "use_bias": true, "kernel_initializer": {"class_name": "RandomNormal", "config": {"mean": 0.0, "stddev": 0.01, "seed": null}}, "bias_initializer": {"class_name": "Zeros", "config": {}}, "kernel_regularizer": null, "bias_regularizer": null, "activity_regularizer": null, "kernel_constraint": null, "bias_constraint": null}, "inbound_nodes": [[["pyramid_classification_1", 0, 0, {}]]]}, {"name": "pyramid_classification_3", "class_name": "Conv2D", "config": {"name": "pyramid_classification_3", "trainable": true, "filters": 256, "kernel_size": [3, 3], "strides": [1, 1], "padding": "same", "data_format": "channels_last", "dilation_rate": [1, 1], "activation": "relu", "use_bias": true, "kernel_initializer": {"class_name": "RandomNormal", "config": {"mean": 0.0, "stddev": 0.01, "seed": null}}, "bias_initializer": {"class_name": "Zeros", "config": {}}, "kernel_regularizer": null, "bias_regularizer": null, "activity_regularizer": null, "kernel_constraint": null, "bias_constraint": null}, "inbound_nodes": [[["pyramid_classification_2", 0, 0, {}]]]}, {"name": "pyramid_classification", "class_name": "Conv2D", "config": {"name": "pyramid_classification", "trainable": true, "filters": 18, "kernel_size": [3, 3], "strides": [1, 1], "padding": "same", "data_format": "channels_last", "dilation_rate": [1, 1], "activation": "linear", "use_bias": true, "kernel_initializer": {"class_name": "RandomNormal", "config": {"mean": 0.0, "stddev": 0.01, "seed": null}}, "bias_initializer": {"class_name": "PriorProbability", "config": {"probability": 0.01}}, "kernel_regularizer": null, "bias_regularizer": null, "activity_regularizer": null, "kernel_constraint": null, "bias_constraint": null}, "inbound_nodes": [[["pyramid_classification_3", 0, 0, {}]]]}, {"name": "pyramid_classification_reshape", "class_name": "Reshape", "config": {"name": "pyramid_classification_reshape", "trainable": true, "target_shape": [-1, 2]}, "inbound_nodes": [[["pyramid_classification", 0, 0, {}]]]}, {"name": "pyramid_classification_sigmoid", "class_name": "Activation", "config": {"name": "pyramid_classification_sigmoid", "trainable": true, "activation": "sigmoid"}, "inbound_nodes": [[["pyramid_classification_reshape", 0, 0, {}]]]}], "input_layers": [["input_3", 0, 0]], "output_layers": [["pyramid_classification_sigmoid", 0, 0]]}, "inbound_nodes": [[["P3", 0, 0, {}]], [["P4", 0, 0, {}]], [["P5", 0, 0, {}]], [["P6", 0, 0, {}]], [["P7", 0, 0, {}]]]}, {"name": "clipped_boxes", "class_name": "ClipBoxes", "config": {"name": "clipped_boxes", "trainable": true}, "inbound_nodes": [[["input_1", 0, 0, {}], ["boxes", 0, 0, {}]]]}, {"name": "classification", "class_name": "Concatenate", "config": {"name": "classification", "trainable": true, "axis": 1}, "inbound_nodes": [[["classification_submodel", 1, 0, {}], ["classification_submodel", 2, 0, {}], ["classification_submodel", 3, 0, {}], ["classification_submodel", 4, 0, {}], ["classification_submodel", 5, 0, {}]]]}, {"name": "filtered_detections", "class_name": "FilterDetections", "config": {"name": "filtered_detections", "trainable": true, "nms": true, "class_specific_filter": true, "nms_threshold": 0.5, "score_threshold": 0.05, "max_detections": 300, "parallel_iterations": 32}, "inbound_nodes": [[["clipped_boxes", 0, 0, {}], ["classification", 0, 0, {}]]]}], "input_layers": [["input_1", 0, 0]], "output_layers": [["filtered_detections", 0, 0], ["filtered_detections", 0, 1], ["filtered_detections", 0, 2]]}}}, "weightsManifest": [{"paths": ["group1-shard1of35.bin", "group1-shard2of35.bin", "group1-shard3of35.bin", "group1-shard4of35.bin", "group1-shard5of35.bin", "group1-shard6of35.bin", "group1-shard7of35.bin", "group1-shard8of35.bin", "group1-shard9of35.bin", "group1-shard10of35.bin", "group1-shard11of35.bin", "group1-shard12of35.bin", "group1-shard13of35.bin", "group1-shard14of35.bin", "group1-shard15of35.bin", "group1-shard16of35.bin", "group1-shard17of35.bin", "group1-shard18of35.bin", "group1-shard19of35.bin", "group1-shard20of35.bin", "group1-shard21of35.bin", "group1-shard22of35.bin", "group1-shard23of35.bin", "group1-shard24of35.bin", "group1-shard25of35.bin", "group1-shard26of35.bin", "group1-shard27of35.bin", "group1-shard28of35.bin", "group1-shard29of35.bin", "group1-shard30of35.bin", "group1-shard31of35.bin", "group1-shard32of35.bin", "group1-shard33of35.bin", "group1-shard34of35.bin", "group1-shard35of35.bin"], "weights": [{"name": "C3_reduced/kernel", "shape": [1, 1, 512, 256], "dtype": "float32"}, {"name": "C3_reduced/bias", "shape": [256], "dtype": "float32"}, {"name": "C4_reduced/kernel", "shape": [1, 1, 1024, 256], "dtype": "float32"}, {"name": "C4_reduced/bias", "shape": [256], "dtype": "float32"}, {"name": "C5_reduced/kernel", "shape": [1, 1, 2048, 256], "dtype": "float32"}, {"name": "C5_reduced/bias", "shape": [256], "dtype": "float32"}, {"name": "P3/kernel", "shape": [3, 3, 256, 256], "dtype": "float32"}, {"name": "P3/bias", "shape": [256], "dtype": "float32"}, {"name": "P4/kernel", "shape": [3, 3, 256, 256], "dtype": "float32"}, {"name": "P4/bias", "shape": [256], "dtype": "float32"}, {"name": "P5/kernel", "shape": [3, 3, 256, 256], "dtype": "float32"}, {"name": "P5/bias", "shape": [256], "dtype": "float32"}, {"name": "P6/kernel", "shape": [3, 3, 2048, 256], "dtype": "float32"}, {"name": "P6/bias", "shape": [256], "dtype": "float32"}, {"name": "P7/kernel", "shape": [3, 3, 256, 256], "dtype": "float32"}, {"name": "P7/bias", "shape": [256], "dtype": "float32"}, {"name": "bn2a_branch1/gamma", "shape": [256], "dtype": "float32"}, {"name": "bn2a_branch1/beta", "shape": [256], "dtype": "float32"}, {"name": "bn2a_branch1/moving_mean", "shape": [256], "dtype": "float32"}, {"name": "bn2a_branch1/moving_variance", "shape": [256], "dtype": "float32"}, {"name": "bn2a_branch2a/gamma", "shape": [64], "dtype": "float32"}, {"name": "bn2a_branch2a/beta", "shape": [64], "dtype": "float32"}, {"name": "bn2a_branch2a/moving_mean", "shape": [64], "dtype": "float32"}, {"name": "bn2a_branch2a/moving_variance", "shape": [64], "dtype": "float32"}, {"name": "bn2a_branch2b/gamma", "shape": [64], "dtype": "float32"}, {"name": "bn2a_branch2b/beta", "shape": [64], "dtype": "float32"}, {"name": "bn2a_branch2b/moving_mean", "shape": [64], "dtype": "float32"}, {"name": "bn2a_branch2b/moving_variance", "shape": [64], "dtype": "float32"}, {"name": "bn2a_branch2c/gamma", "shape": [256], "dtype": "float32"}, {"name": "bn2a_branch2c/beta", "shape": [256], "dtype": "float32"}, {"name": "bn2a_branch2c/moving_mean", "shape": [256], "dtype": "float32"}, {"name": "bn2a_branch2c/moving_variance", "shape": [256], "dtype": "float32"}, {"name": "bn2b_branch2a/gamma", "shape": [64], "dtype": "float32"}, {"name": "bn2b_branch2a/beta", "shape": [64], "dtype": "float32"}, {"name": "bn2b_branch2a/moving_mean", "shape": [64], "dtype": "float32"}, {"name": "bn2b_branch2a/moving_variance", "shape": [64], "dtype": "float32"}, {"name": "bn2b_branch2b/gamma", "shape": [64], "dtype": "float32"}, {"name": "bn2b_branch2b/beta", "shape": [64], "dtype": "float32"}, {"name": "bn2b_branch2b/moving_mean", "shape": [64], "dtype": "float32"}, {"name": "bn2b_branch2b/moving_variance", "shape": [64], "dtype": "float32"}, {"name": "bn2b_branch2c/gamma", "shape": [256], "dtype": "float32"}, {"name": "bn2b_branch2c/beta", "shape": [256], "dtype": "float32"}, {"name": "bn2b_branch2c/moving_mean", "shape": [256], "dtype": "float32"}, {"name": "bn2b_branch2c/moving_variance", "shape": [256], "dtype": "float32"}, {"name": "bn2c_branch2a/gamma", "shape": [64], "dtype": "float32"}, {"name": "bn2c_branch2a/beta", "shape": [64], "dtype": "float32"}, {"name": "bn2c_branch2a/moving_mean", "shape": [64], "dtype": "float32"}, {"name": "bn2c_branch2a/moving_variance", "shape": [64], "dtype": "float32"}, {"name": "bn2c_branch2b/gamma", "shape": [64], "dtype": "float32"}, {"name": "bn2c_branch2b/beta", "shape": [64], "dtype": "float32"}, {"name": "bn2c_branch2b/moving_mean", "shape": [64], "dtype": "float32"}, {"name": "bn2c_branch2b/moving_variance", "shape": [64], "dtype": "float32"}, {"name": "bn2c_branch2c/gamma", "shape": [256], "dtype": "float32"}, {"name": "bn2c_branch2c/beta", "shape": [256], "dtype": "float32"}, {"name": "bn2c_branch2c/moving_mean", "shape": [256], "dtype": "float32"}, {"name": "bn2c_branch2c/moving_variance", "shape": [256], "dtype": "float32"}, {"name": "bn3a_branch1/gamma", "shape": [512], "dtype": "float32"}, {"name": "bn3a_branch1/beta", "shape": [512], "dtype": "float32"}, {"name": "bn3a_branch1/moving_mean", "shape": [512], "dtype": "float32"}, {"name": "bn3a_branch1/moving_variance", "shape": [512], "dtype": "float32"}, {"name": "bn3a_branch2a/gamma", "shape": [128], "dtype": "float32"}, {"name": "bn3a_branch2a/beta", "shape": [128], "dtype": "float32"}, {"name": "bn3a_branch2a/moving_mean", "shape": [128], "dtype": "float32"}, {"name": "bn3a_branch2a/moving_variance", "shape": [128], "dtype": "float32"}, {"name": "bn3a_branch2b/gamma", "shape": [128], "dtype": "float32"}, {"name": "bn3a_branch2b/beta", "shape": [128], "dtype": "float32"}, {"name": "bn3a_branch2b/moving_mean", "shape": [128], "dtype": "float32"}, {"name": "bn3a_branch2b/moving_variance", "shape": [128], "dtype": "float32"}, {"name": "bn3a_branch2c/gamma", "shape": [512], "dtype": "float32"}, {"name": "bn3a_branch2c/beta", "shape": [512], "dtype": "float32"}, {"name": "bn3a_branch2c/moving_mean", "shape": [512], "dtype": "float32"}, {"name": "bn3a_branch2c/moving_variance", "shape": [512], "dtype": "float32"}, {"name": "bn3b_branch2a/gamma", "shape": [128], "dtype": "float32"}, {"name": "bn3b_branch2a/beta", "shape": [128], "dtype": "float32"}, {"name": "bn3b_branch2a/moving_mean", "shape": [128], "dtype": "float32"}, {"name": "bn3b_branch2a/moving_variance", "shape": [128], "dtype": "float32"}, {"name": "bn3b_branch2b/gamma", "shape": [128], "dtype": "float32"}, {"name": "bn3b_branch2b/beta", "shape": [128], "dtype": "float32"}, {"name": "bn3b_branch2b/moving_mean", "shape": [128], "dtype": "float32"}, {"name": "bn3b_branch2b/moving_variance", "shape": [128], "dtype": "float32"}, {"name": "bn3b_branch2c/gamma", "shape": [512], "dtype": "float32"}, {"name": "bn3b_branch2c/beta", "shape": [512], "dtype": "float32"}, {"name": "bn3b_branch2c/moving_mean", "shape": [512], "dtype": "float32"}, {"name": "bn3b_branch2c/moving_variance", "shape": [512], "dtype": "float32"}, {"name": "bn3c_branch2a/gamma", "shape": [128], "dtype": "float32"}, {"name": "bn3c_branch2a/beta", "shape": [128], "dtype": "float32"}, {"name": "bn3c_branch2a/moving_mean", "shape": [128], "dtype": "float32"}, {"name": "bn3c_branch2a/moving_variance", "shape": [128], "dtype": "float32"}, {"name": "bn3c_branch2b/gamma", "shape": [128], "dtype": "float32"}, {"name": "bn3c_branch2b/beta", "shape": [128], "dtype": "float32"}, {"name": "bn3c_branch2b/moving_mean", "shape": [128], "dtype": "float32"}, {"name": "bn3c_branch2b/moving_variance", "shape": [128], "dtype": "float32"}, {"name": "bn3c_branch2c/gamma", "shape": [512], "dtype": "float32"}, {"name": "bn3c_branch2c/beta", "shape": [512], "dtype": "float32"}, {"name": "bn3c_branch2c/moving_mean", "shape": [512], "dtype": "float32"}, {"name": "bn3c_branch2c/moving_variance", "shape": [512], "dtype": "float32"}, {"name": "bn3d_branch2a/gamma", "shape": [128], "dtype": "float32"}, {"name": "bn3d_branch2a/beta", "shape": [128], "dtype": "float32"}, {"name": "bn3d_branch2a/moving_mean", "shape": [128], "dtype": "float32"}, {"name": "bn3d_branch2a/moving_variance", "shape": [128], "dtype": "float32"}, {"name": "bn3d_branch2b/gamma", "shape": [128], "dtype": "float32"}, {"name": "bn3d_branch2b/beta", "shape": [128], "dtype": "float32"}, {"name": "bn3d_branch2b/moving_mean", "shape": [128], "dtype": "float32"}, {"name": "bn3d_branch2b/moving_variance", "shape": [128], "dtype": "float32"}, {"name": "bn3d_branch2c/gamma", "shape": [512], "dtype": "float32"}, {"name": "bn3d_branch2c/beta", "shape": [512], "dtype": "float32"}, {"name": "bn3d_branch2c/moving_mean", "shape": [512], "dtype": "float32"}, {"name": "bn3d_branch2c/moving_variance", "shape": [512], "dtype": "float32"}, {"name": "bn4a_branch1/gamma", "shape": [1024], "dtype": "float32"}, {"name": "bn4a_branch1/beta", "shape": [1024], "dtype": "float32"}, {"name": "bn4a_branch1/moving_mean", "shape": [1024], "dtype": "float32"}, {"name": "bn4a_branch1/moving_variance", "shape": [1024], "dtype": "float32"}, {"name": "bn4a_branch2a/gamma", "shape": [256], "dtype": "float32"}, {"name": "bn4a_branch2a/beta", "shape": [256], "dtype": "float32"}, {"name": "bn4a_branch2a/moving_mean", "shape": [256], "dtype": "float32"}, {"name": "bn4a_branch2a/moving_variance", "shape": [256], "dtype": "float32"}, {"name": "bn4a_branch2b/gamma", "shape": [256], "dtype": "float32"}, {"name": "bn4a_branch2b/beta", "shape": [256], "dtype": "float32"}, {"name": "bn4a_branch2b/moving_mean", "shape": [256], "dtype": "float32"}, {"name": "bn4a_branch2b/moving_variance", "shape": [256], "dtype": "float32"}, {"name": "bn4a_branch2c/gamma", "shape": [1024], "dtype": "float32"}, {"name": "bn4a_branch2c/beta", "shape": [1024], "dtype": "float32"}, {"name": "bn4a_branch2c/moving_mean", "shape": [1024], "dtype": "float32"}, {"name": "bn4a_branch2c/moving_variance", "shape": [1024], "dtype": "float32"}, {"name": "bn4b_branch2a/gamma", "shape": [256], "dtype": "float32"}, {"name": "bn4b_branch2a/beta", "shape": [256], "dtype": "float32"}, {"name": "bn4b_branch2a/moving_mean", "shape": [256], "dtype": "float32"}, {"name": "bn4b_branch2a/moving_variance", "shape": [256], "dtype": "float32"}, {"name": "bn4b_branch2b/gamma", "shape": [256], "dtype": "float32"}, {"name": "bn4b_branch2b/beta", "shape": [256], "dtype": "float32"}, {"name": "bn4b_branch2b/moving_mean", "shape": [256], "dtype": "float32"}, {"name": "bn4b_branch2b/moving_variance", "shape": [256], "dtype": "float32"}, {"name": "bn4b_branch2c/gamma", "shape": [1024], "dtype": "float32"}, {"name": "bn4b_branch2c/beta", "shape": [1024], "dtype": "float32"}, {"name": "bn4b_branch2c/moving_mean", "shape": [1024], "dtype": "float32"}, {"name": "bn4b_branch2c/moving_variance", "shape": [1024], "dtype": "float32"}, {"name": "bn4c_branch2a/gamma", "shape": [256], "dtype": "float32"}, {"name": "bn4c_branch2a/beta", "shape": [256], "dtype": "float32"}, {"name": "bn4c_branch2a/moving_mean", "shape": [256], "dtype": "float32"}, {"name": "bn4c_branch2a/moving_variance", "shape": [256], "dtype": "float32"}, {"name": "bn4c_branch2b/gamma", "shape": [256], "dtype": "float32"}, {"name": "bn4c_branch2b/beta", "shape": [256], "dtype": "float32"}, {"name": "bn4c_branch2b/moving_mean", "shape": [256], "dtype": "float32"}, {"name": "bn4c_branch2b/moving_variance", "shape": [256], "dtype": "float32"}, {"name": "bn4c_branch2c/gamma", "shape": [1024], "dtype": "float32"}, {"name": "bn4c_branch2c/beta", "shape": [1024], "dtype": "float32"}, {"name": "bn4c_branch2c/moving_mean", "shape": [1024], "dtype": "float32"}, {"name": "bn4c_branch2c/moving_variance", "shape": [1024], "dtype": "float32"}, {"name": "bn4d_branch2a/gamma", "shape": [256], "dtype": "float32"}, {"name": "bn4d_branch2a/beta", "shape": [256], "dtype": "float32"}, {"name": "bn4d_branch2a/moving_mean", "shape": [256], "dtype": "float32"}, {"name": "bn4d_branch2a/moving_variance", "shape": [256], "dtype": "float32"}, {"name": "bn4d_branch2b/gamma", "shape": [256], "dtype": "float32"}, {"name": "bn4d_branch2b/beta", "shape": [256], "dtype": "float32"}, {"name": "bn4d_branch2b/moving_mean", "shape": [256], "dtype": "float32"}, {"name": "bn4d_branch2b/moving_variance", "shape": [256], "dtype": "float32"}, {"name": "bn4d_branch2c/gamma", "shape": [1024], "dtype": "float32"}, {"name": "bn4d_branch2c/beta", "shape": [1024], "dtype": "float32"}, {"name": "bn4d_branch2c/moving_mean", "shape": [1024], "dtype": "float32"}, {"name": "bn4d_branch2c/moving_variance", "shape": [1024], "dtype": "float32"}, {"name": "bn4e_branch2a/gamma", "shape": [256], "dtype": "float32"}, {"name": "bn4e_branch2a/beta", "shape": [256], "dtype": "float32"}, {"name": "bn4e_branch2a/moving_mean", "shape": [256], "dtype": "float32"}, {"name": "bn4e_branch2a/moving_variance", "shape": [256], "dtype": "float32"}, {"name": "bn4e_branch2b/gamma", "shape": [256], "dtype": "float32"}, {"name": "bn4e_branch2b/beta", "shape": [256], "dtype": "float32"}, {"name": "bn4e_branch2b/moving_mean", "shape": [256], "dtype": "float32"}, {"name": "bn4e_branch2b/moving_variance", "shape": [256], "dtype": "float32"}, {"name": "bn4e_branch2c/gamma", "shape": [1024], "dtype": "float32"}, {"name": "bn4e_branch2c/beta", "shape": [1024], "dtype": "float32"}, {"name": "bn4e_branch2c/moving_mean", "shape": [1024], "dtype": "float32"}, {"name": "bn4e_branch2c/moving_variance", "shape": [1024], "dtype": "float32"}, {"name": "bn4f_branch2a/gamma", "shape": [256], "dtype": "float32"}, {"name": "bn4f_branch2a/beta", "shape": [256], "dtype": "float32"}, {"name": "bn4f_branch2a/moving_mean", "shape": [256], "dtype": "float32"}, {"name": "bn4f_branch2a/moving_variance", "shape": [256], "dtype": "float32"}, {"name": "bn4f_branch2b/gamma", "shape": [256], "dtype": "float32"}, {"name": "bn4f_branch2b/beta", "shape": [256], "dtype": "float32"}, {"name": "bn4f_branch2b/moving_mean", "shape": [256], "dtype": "float32"}, {"name": "bn4f_branch2b/moving_variance", "shape": [256], "dtype": "float32"}, {"name": "bn4f_branch2c/gamma", "shape": [1024], "dtype": "float32"}, {"name": "bn4f_branch2c/beta", "shape": [1024], "dtype": "float32"}, {"name": "bn4f_branch2c/moving_mean", "shape": [1024], "dtype": "float32"}, {"name": "bn4f_branch2c/moving_variance", "shape": [1024], "dtype": "float32"}, {"name": "bn5a_branch1/gamma", "shape": [2048], "dtype": "float32"}, {"name": "bn5a_branch1/beta", "shape": [2048], "dtype": "float32"}, {"name": "bn5a_branch1/moving_mean", "shape": [2048], "dtype": "float32"}, {"name": "bn5a_branch1/moving_variance", "shape": [2048], "dtype": "float32"}, {"name": "bn5a_branch2a/gamma", "shape": [512], "dtype": "float32"}, {"name": "bn5a_branch2a/beta", "shape": [512], "dtype": "float32"}, {"name": "bn5a_branch2a/moving_mean", "shape": [512], "dtype": "float32"}, {"name": "bn5a_branch2a/moving_variance", "shape": [512], "dtype": "float32"}, {"name": "bn5a_branch2b/gamma", "shape": [512], "dtype": "float32"}, {"name": "bn5a_branch2b/beta", "shape": [512], "dtype": "float32"}, {"name": "bn5a_branch2b/moving_mean", "shape": [512], "dtype": "float32"}, {"name": "bn5a_branch2b/moving_variance", "shape": [512], "dtype": "float32"}, {"name": "bn5a_branch2c/gamma", "shape": [2048], "dtype": "float32"}, {"name": "bn5a_branch2c/beta", "shape": [2048], "dtype": "float32"}, {"name": "bn5a_branch2c/moving_mean", "shape": [2048], "dtype": "float32"}, {"name": "bn5a_branch2c/moving_variance", "shape": [2048], "dtype": "float32"}, {"name": "bn5b_branch2a/gamma", "shape": [512], "dtype": "float32"}, {"name": "bn5b_branch2a/beta", "shape": [512], "dtype": "float32"}, {"name": "bn5b_branch2a/moving_mean", "shape": [512], "dtype": "float32"}, {"name": "bn5b_branch2a/moving_variance", "shape": [512], "dtype": "float32"}, {"name": "bn5b_branch2b/gamma", "shape": [512], "dtype": "float32"}, {"name": "bn5b_branch2b/beta", "shape": [512], "dtype": "float32"}, {"name": "bn5b_branch2b/moving_mean", "shape": [512], "dtype": "float32"}, {"name": "bn5b_branch2b/moving_variance", "shape": [512], "dtype": "float32"}, {"name": "bn5b_branch2c/gamma", "shape": [2048], "dtype": "float32"}, {"name": "bn5b_branch2c/beta", "shape": [2048], "dtype": "float32"}, {"name": "bn5b_branch2c/moving_mean", "shape": [2048], "dtype": "float32"}, {"name": "bn5b_branch2c/moving_variance", "shape": [2048], "dtype": "float32"}, {"name": "bn5c_branch2a/gamma", "shape": [512], "dtype": "float32"}, {"name": "bn5c_branch2a/beta", "shape": [512], "dtype": "float32"}, {"name": "bn5c_branch2a/moving_mean", "shape": [512], "dtype": "float32"}, {"name": "bn5c_branch2a/moving_variance", "shape": [512], "dtype": "float32"}, {"name": "bn5c_branch2b/gamma", "shape": [512], "dtype": "float32"}, {"name": "bn5c_branch2b/beta", "shape": [512], "dtype": "float32"}, {"name": "bn5c_branch2b/moving_mean", "shape": [512], "dtype": "float32"}, {"name": "bn5c_branch2b/moving_variance", "shape": [512], "dtype": "float32"}, {"name": "bn5c_branch2c/gamma", "shape": [2048], "dtype": "float32"}, {"name": "bn5c_branch2c/beta", "shape": [2048], "dtype": "float32"}, {"name": "bn5c_branch2c/moving_mean", "shape": [2048], "dtype": "float32"}, {"name": "bn5c_branch2c/moving_variance", "shape": [2048], "dtype": "float32"}, {"name": "bn_conv1/gamma", "shape": [64], "dtype": "float32"}, {"name": "bn_conv1/beta", "shape": [64], "dtype": "float32"}, {"name": "bn_conv1/moving_mean", "shape": [64], "dtype": "float32"}, {"name": "bn_conv1/moving_variance", "shape": [64], "dtype": "float32"}, {"name": "pyramid_classification_0/kernel", "shape": [3, 3, 256, 256], "dtype": "float32"}, {"name": "pyramid_classification_0/bias", "shape": [256], "dtype": "float32"}, {"name": "pyramid_classification_1/kernel", "shape": [3, 3, 256, 256], "dtype": "float32"}, {"name": "pyramid_classification_1/bias", "shape": [256], "dtype": "float32"}, {"name": "pyramid_classification_2/kernel", "shape": [3, 3, 256, 256], "dtype": "float32"}, {"name": "pyramid_classification_2/bias", "shape": [256], "dtype": "float32"}, {"name": "pyramid_classification_3/kernel", "shape": [3, 3, 256, 256], "dtype": "float32"}, {"name": "pyramid_classification_3/bias", "shape": [256], "dtype": "float32"}, {"name": "pyramid_classification/kernel", "shape": [3, 3, 256, 18], "dtype": "float32"}, {"name": "pyramid_classification/bias", "shape": [18], "dtype": "float32"}, {"name": "conv1/kernel", "shape": [7, 7, 3, 64], "dtype": "float32"}, {"name": "pyramid_regression_0/kernel", "shape": [3, 3, 256, 256], "dtype": "float32"}, {"name": "pyramid_regression_0/bias", "shape": [256], "dtype": "float32"}, {"name": "pyramid_regression_1/kernel", "shape": [3, 3, 256, 256], "dtype": "float32"}, {"name": "pyramid_regression_1/bias", "shape": [256], "dtype": "float32"}, {"name": "pyramid_regression_2/kernel", "shape": [3, 3, 256, 256], "dtype": "float32"}, {"name": "pyramid_regression_2/bias", "shape": [256], "dtype": "float32"}, {"name": "pyramid_regression_3/kernel", "shape": [3, 3, 256, 256], "dtype": "float32"}, {"name": "pyramid_regression_3/bias", "shape": [256], "dtype": "float32"}, {"name": "pyramid_regression/kernel", "shape": [3, 3, 256, 36], "dtype": "float32"}, {"name": "pyramid_regression/bias", "shape": [36], "dtype": "float32"}, {"name": "res2a_branch1/kernel", "shape": [1, 1, 64, 256], "dtype": "float32"}, {"name": "res2a_branch2a/kernel", "shape": [1, 1, 64, 64], "dtype": "float32"}, {"name": "res2a_branch2b/kernel", "shape": [3, 3, 64, 64], "dtype": "float32"}, {"name": "res2a_branch2c/kernel", "shape": [1, 1, 64, 256], "dtype": "float32"}, {"name": "res2b_branch2a/kernel", "shape": [1, 1, 256, 64], "dtype": "float32"}, {"name": "res2b_branch2b/kernel", "shape": [3, 3, 64, 64], "dtype": "float32"}, {"name": "res2b_branch2c/kernel", "shape": [1, 1, 64, 256], "dtype": "float32"}, {"name": "res2c_branch2a/kernel", "shape": [1, 1, 256, 64], "dtype": "float32"}, {"name": "res2c_branch2b/kernel", "shape": [3, 3, 64, 64], "dtype": "float32"}, {"name": "res2c_branch2c/kernel", "shape": [1, 1, 64, 256], "dtype": "float32"}, {"name": "res3a_branch1/kernel", "shape": [1, 1, 256, 512], "dtype": "float32"}, {"name": "res3a_branch2a/kernel", "shape": [1, 1, 256, 128], "dtype": "float32"}, {"name": "res3a_branch2b/kernel", "shape": [3, 3, 128, 128], "dtype": "float32"}, {"name": "res3a_branch2c/kernel", "shape": [1, 1, 128, 512], "dtype": "float32"}, {"name": "res3b_branch2a/kernel", "shape": [1, 1, 512, 128], "dtype": "float32"}, {"name": "res3b_branch2b/kernel", "shape": [3, 3, 128, 128], "dtype": "float32"}, {"name": "res3b_branch2c/kernel", "shape": [1, 1, 128, 512], "dtype": "float32"}, {"name": "res3c_branch2a/kernel", "shape": [1, 1, 512, 128], "dtype": "float32"}, {"name": "res3c_branch2b/kernel", "shape": [3, 3, 128, 128], "dtype": "float32"}, {"name": "res3c_branch2c/kernel", "shape": [1, 1, 128, 512], "dtype": "float32"}, {"name": "res3d_branch2a/kernel", "shape": [1, 1, 512, 128], "dtype": "float32"}, {"name": "res3d_branch2b/kernel", "shape": [3, 3, 128, 128], "dtype": "float32"}, {"name": "res3d_branch2c/kernel", "shape": [1, 1, 128, 512], "dtype": "float32"}, {"name": "res4a_branch1/kernel", "shape": [1, 1, 512, 1024], "dtype": "float32"}, {"name": "res4a_branch2a/kernel", "shape": [1, 1, 512, 256], "dtype": "float32"}, {"name": "res4a_branch2b/kernel", "shape": [3, 3, 256, 256], "dtype": "float32"}, {"name": "res4a_branch2c/kernel", "shape": [1, 1, 256, 1024], "dtype": "float32"}, {"name": "res4b_branch2a/kernel", "shape": [1, 1, 1024, 256], "dtype": "float32"}, {"name": "res4b_branch2b/kernel", "shape": [3, 3, 256, 256], "dtype": "float32"}, {"name": "res4b_branch2c/kernel", "shape": [1, 1, 256, 1024], "dtype": "float32"}, {"name": "res4c_branch2a/kernel", "shape": [1, 1, 1024, 256], "dtype": "float32"}, {"name": "res4c_branch2b/kernel", "shape": [3, 3, 256, 256], "dtype": "float32"}, {"name": "res4c_branch2c/kernel", "shape": [1, 1, 256, 1024], "dtype": "float32"}, {"name": "res4d_branch2a/kernel", "shape": [1, 1, 1024, 256], "dtype": "float32"}, {"name": "res4d_branch2b/kernel", "shape": [3, 3, 256, 256], "dtype": "float32"}, {"name": "res4d_branch2c/kernel", "shape": [1, 1, 256, 1024], "dtype": "float32"}, {"name": "res4e_branch2a/kernel", "shape": [1, 1, 1024, 256], "dtype": "float32"}, {"name": "res4e_branch2b/kernel", "shape": [3, 3, 256, 256], "dtype": "float32"}, {"name": "res4e_branch2c/kernel", "shape": [1, 1, 256, 1024], "dtype": "float32"}, {"name": "res4f_branch2a/kernel", "shape": [1, 1, 1024, 256], "dtype": "float32"}, {"name": "res4f_branch2b/kernel", "shape": [3, 3, 256, 256], "dtype": "float32"}, {"name": "res4f_branch2c/kernel", "shape": [1, 1, 256, 1024], "dtype": "float32"}, {"name": "res5a_branch1/kernel", "shape": [1, 1, 1024, 2048], "dtype": "float32"}, {"name": "res5a_branch2a/kernel", "shape": [1, 1, 1024, 512], "dtype": "float32"}, {"name": "res5a_branch2b/kernel", "shape": [3, 3, 512, 512], "dtype": "float32"}, {"name": "res5a_branch2c/kernel", "shape": [1, 1, 512, 2048], "dtype": "float32"}, {"name": "res5b_branch2a/kernel", "shape": [1, 1, 2048, 512], "dtype": "float32"}, {"name": "res5b_branch2b/kernel", "shape": [3, 3, 512, 512], "dtype": "float32"}, {"name": "res5b_branch2c/kernel", "shape": [1, 1, 512, 2048], "dtype": "float32"}, {"name": "res5c_branch2a/kernel", "shape": [1, 1, 2048, 512], "dtype": "float32"}, {"name": "res5c_branch2b/kernel", "shape": [3, 3, 512, 512], "dtype": "float32"}, {"name": "res5c_branch2c/kernel", "shape": [1, 1, 512, 2048], "dtype": "float32"}]}]}